save_model/mnist-lenet.pth (torch, 181701 bytes, 10 tensors)

conv1.weight f4 [6, 1, 5, 5]
00000000: 3640 023e 1f37 d7bd 198a 083e 5529 80bd
00000010: 7442 c7be 3c40 45be aaba 753d cb98 87be
00000020: 7120 2ebe 4401 983d 9bf2 2abd 1a55 a8ba
00000030: 3c13 c73e 4b49 763e 3abd 89bd 6579 21be
00000040: f7fa de3e 36d1 f43e afa6 a03e 47b0 dabd
00000050: 7299 c83d 9303 e03d aa4a 0fbe 5571 9bbe
00000060: 8ca1 b139 207e ef3d b7be 81be 3571 33be
00000070: e9f6 38be 43ca b8be 1abd 77be a54f 55be
00000080: 648a b9be 5867 99be 0da4 a6be 4f46 d6bd
00000090: 07d9 a9be 6e71 48be f8df b6be 2d34 3ebe
000000a0: 7f44 fe3d 8356 863d c412 5cbe 48cf d2bd
000000b0: 7e4d 17be decf ac3e 2431 cd3d 31d0 3d3a
000000c0: 8a01 193b 3a83 213e 12fa 3bbe 9c92 98ba
000000d0: e3db c5bc 60fd 3bbd b17e adbe 94f2 0abe
000000e0: ae7d 82bd d8cc d4be 64c5 ecbe 5aef 9cbe
000000f0: 2c59 6d3e c2c9 103e 6854 52be 4e9e c8be
00000100: d27d 28be 4149 b2bc bd33 043e d535 963e
00000110: 486c ad3e 7b39 313e 754d a63c 59af 283e
00000120: b999 043f 25b6 da3e e8f4 e73e 3945 aebd
00000130: a485 c0bc 874f 66be 057c 8fbe d8f5 f93d
00000140: 1673 03be dcc4 91bd 1225 a9be c751 34be
00000150: e32e 333e e268 b4bd 4dd4 97be 07a4 a0be
00000160: 2e4c e7bd 09ce 303e b501 aabd 7d68 8bbe
00000170: e22c b83d 77b6 fa3d 6d4b 0f3d 8209 59be
00000180: 1973 3fbd 6942 fb3c b9d4 603e a9cd 9dbb
00000190: 6bc9 33bd 09fb 973e 6a59 903e 264f f1bd
000001a0: 82a9 9dbe 3336 263d 84ed e73e 80ee d33d
000001b0: 73d0 92be 0522 6bbe f1f1 ec3e 2850 8d3e
000001c0: 998f 45be 89eb ccbe c63d 06be efae e13e
000001d0: cded a73e 6c75 0fbe 40f2 49bd 7c37 52be
000001e0: b192 ad3e 77c3 c43e 6bd2 96bc 4057 e03d
000001f0: 4135 2abe dcfb 313d af89 5dbe a7de f0bd
00000200: 4692 a13c fefe a0be 45f1 f23d 1caf ea3b
00000210: 35c9 84be ba37 9fbe 46b9 24be f106 143d
00000220: ac91 a43e b64b c63d 9fb8 a53d 72af ef3d
00000230: 0a94 17be 0b08 ed3d a3d3 ccbd c55a b13e
00000240: fcad bf3d d1db 45be 9d89 27be 6514 813e
00000250: 73a7 e23e 36ef 3f3e
0.12719807 -0.105085604 0.1333393 -0.062578835 -0.38917887 -0.19262785 0.05999247 -0.2648376
-0.17004563 0.074221164 -0.041735273 -0.0012842745 0.38881862 0.24051397 -0.06725545 -0.15768965
0.43550846 0.47815865 0.3137717 -0.106781535 0.09794892 0.10938182 -0.13993326 -0.30359903
0.00033880433 0.11693978 -0.25340816 -0.17523654 -0.18062939 -0.36091813 -0.2419323 -0.20831163
-0.36238396 -0.29961658 -0.32547036 -0.10462629 -0.3317339 -0.1957452 -0.3571775 -0.18574591
0.12415408 0.065594696 -0.21491534 -0.10293442 -0.14775655 0.3375234 0.100191385 0.0007240801
0.0023346865 0.15772715 -0.18357113 -0.0011640373 -0.024152702 -0.045895934 -0.3388572 -0.13569099
-0.06371628 -0.41562533 -0.46244347 -0.3065136 0.23178548 0.14139464 -0.20540011 -0.39183277
-0.16454247 -0.021763446 0.12910362 0.29337946 0.33871675 0.17307083 0.020300606 0.1647314
0.5179706 0.4271709 0.45304036 -0.08509297 -0.023501225 -0.22491275 -0.28024307 0.12205094
-0.1283687 -0.07117626 -0.33036095 -0.1760932 0.17498355 -0.08809067 -0.2965416 -0.31375143
-0.11293827 0.17266096 -0.08301107 -0.27228156 0.08992936 0.12241834 0.03498404 -0.21195033
-0.046740625 0.030671315 0.21956147 -0.0048157764 -0.04389326 0.29683712 0.28193218 -0.117826745
-0.30793387 0.040579032 0.45298398 0.10348225 -0.2867466 -0.22962196 0.46278337 0.27600217
-0.1929306 -0.4002345 -0.13109502 0.44078776 0.32798615 -0.14009637 -0.049303293 -0.20528978
0.3390098 0.38430378 -0.018410882 0.109541416 -0.16621877 0.043453082 -0.21634553 -0.117612176
0.019723069 -0.31444544 0.11862425 0.007161988 -0.2593476 -0.31097203 -0.16086301 0.036139432
0.3214239 0.096824095 0.08091854 0.117033854 -0.14802566 0.115738 -0.10001304 0.34639564
0.09359357 -0.19322135 -0.16361089 0.25210872 0.4426838 0.18743595

conv1.bias f4 [6]
00000000: 4c38 e13e dfe8 e7bd 4b29 893e 16c5 543d
00000010: 32cb d73e 8b21 d73e
0.43988264 -0.113237135 0.26789317 0.05194577 0.42147213 0.4201778

conv2.weight f4 [16, 6, 5, 5]
00000000: d02a 2bbd 6961 8fbd 61fc 87bb c880 863d
00000010: 84cc 05bd 8009 8fbd ebcd 11be a38b a7bd
00000020: 8960 063e 4d41 d7bd 189a 95bd 8032 23be
00000030: 8692 553d 4dd2 503a 6496 c0bd 1a87 13bd
00000040: 3d76 9b3b 0665 4dbd af18 d73a 90c8 59bd
00000050: d46a 1e3c 80b8 b4bd 502a 1e3c c530 21bd
00000060: 317a 2dbd 2532 413d 8661 fbbb 3113 a0bd
00000070: 81b6 083c 155a 873c 0b34 103e d269 1a3e
00000080: 162e 0abe 0cac 25bd 62e7 c63c f440 033d
00000090: c6ee 013d 903d 18be 89fb 1dbe a3ef d73c
000000a0: 4505 143e ead8 743d b33e 3ebe 3b12 d6bc
000000b0: d3c4 843d 5a44 f3b9 1cdc de3c 6816 2ebe
000000c0: 10c8 aabd d384 0c3d 1372 00be fcc8 9ebd
000000d0: 8356 80bd 1516 b73c b47a 07be c2d8 0bbe
000000e0: 94ab d9bd 6ad5 c3bc bef5 94bd 5cfc edbd
000000f0: 312e 0cbd 7b9e 9bbd ac66 01bd 39ae c9bd
00000100: b18a 95bd 1f80 38bd 137e 16be 2362 e2bd
00000110: b4ca 6cbd e548 11bc 5b48 833d 7da7 b4bd
00000120: b2b9 c7bc f3c8 a13c 3c79 2f3d 62e3 6f3d
00000130: f7f2 163d e79e 383c 6ea3 97bd e3d7 69bd
00000140: bd8b cb3c bcd9 b63d 839d 823a bd83 c0bd
00000150: f8c1 7ebd 1d13 74bc c279 af3d 4544 b93b
00000160: 3c71 04be 16f1 863d 6a0c 3dbd 9067 be3d
00000170: a507 0b3c df0c 5bbc f2e3 83bd fed9 3abc
00000180: 5896 a63d 202e 02bd 1ede 8bbd a199 9bbd
00000190: c107 6bbd 49a2 9cbd ef8a a4bd eeb6 2a3e
000001a0: 15ae 8a3d 51c1 2dbd 5aeb 22be ee66 6abd
000001b0: 5784 7b3e d218 b33d 0872 ccbd 8e83 43be
000001c0: b974 e1bc 590b 333e e850 dc3d 1cb9 89bd
000001d0: a562 0ebd 3420 2e3d 5523 8e3e 38fe 9c3c
000001e0: d84e babd a635 4a3d 17c1 fa3d edd1 ca3d
000001f0: 904a 013d 746a 8bbd 6a73 82bd 58a6 7c3d
00000200: d9d7 4c3d 813f cdbc 6856 9bbd e612 febc
00000210: 02b7 e23d 4ac7 93bd 4ae2 ddbc f48d b83c
00000220: b2fc 20bd 555e c63d 0247 aabd c95f 53bd
00000230: 9090 8bbd 0aba c13b af13 fbbc c445 8abd
00000240: 5e3d 573b d57c b53c d8d4 9dbd 1b8d 1abd
00000250: 1c2c dcbc 56aa 5dbd f996 683d 2572 bcbd
00000260: dab5 02be feef 1f3e 41e6 0e3e ff5a 1fbc
00000270: 2861 dbbd 2951 04bd b0bd 3e3e ccd7 4abd
00000280: 7c2a 12bd 56f7 9ebd 23c5 ce3d 74b8 16bd
00000290: 2ac6 263c 9ae4 4bbd 184d 4dbd 0b70 edbc
000002a0: 9b9d 2b3d d3b2 ec3c fd41 353d 25aa 8abd
000002b0: c646 5f3b 03e6 913d 74a7 c1bc 2d57 a03d
000002c0: 91cc 533e 834d 70bd 7cd0 27be d36f 93bd
000002d0: 7175 fd3d 8e24 123e da24 dbbd c727 f5bd
000002e0: 6024 1ebd de2c 653d e884 993b 3bf9 64be
000002f0: 8e2a 3fbe fba2 613d ced0 863c b689 e7bd
00000300: 936c 38be 2b77 c9bd aba2 9f3d bdb3 b5bc
00000310: e86f 38bd 65cc a6bd 34c2 24bc 69ac 833d
00000320: cc70 85bd b0c9 3fbe 84f6 59bd 8b2e 6dbd
00000330: 21f4 cd3b 1a64 6bbd c4e1 b4b9 3d11 66bd
00000340: 07e7 45bd 1840 45bd 2186 cd3d ecfc 0c3d
00000350: 9c9e 0abe 16ac bdbd 9196 04bd fc23 0a3b
00000360: 3710 03be c4e8 dbbd 31f7 c73b bcac 2e3c
00000370: d137 1dbd f44d 9bbd 1b3d 933d 74d2 c23d
00000380: 6ed3 17bc ed42 61bd a296 1b3d 9a38 b73d
00000390: 6f0f 143c fcf7 0c3d 6e4e 383d 45fc d63d
000003a0: cfc9 533e 7d7c 83bd 760d a3bd 3b55 e8bb
000003b0: 4576 263e 789b 133d 33e7 36bd 390b 24bd
000003c0: 8c44 1b3d 2a6e c13d 69ad e1bd fa68 a7bc
000003d0: 6a7a d7bd b9a4 af3d d825 bdbc e314 3ebd
000003e0: 43ad b3bd e98a e8bd 2276 603d 401f 1d3c
000003f0: c25e 6fbe 4ae3 e63c b42c 673e d845 bdbb
-0.041788876 -0.070010014 -0.004149959 0.06567532 -0.032665744 -0.06984234 -0.14238708 -0.081809305
0.13122763 -0.10510502 -0.07304782 -0.15937233 0.05214169 0.00079659076 -0.09403685 -0.036017515
0.0047443197 -0.05014517 0.0016410555 -0.053169787 0.0096690245 -0.08824253 0.009653643 -0.03935315
-0.04235286 0.047166962 -0.007671538 -0.078161605 0.008344294 0.016522447 0.14082353 0.1507943
-0.13494143 -0.04044728 0.024280254 0.032044366 0.031721853 -0.14867234 -0.15427984 0.026359385
0.14455135 0.059777178 -0.18578605 -0.02613174 0.06482854 -0.00046399498 0.027204566 -0.17000735
-0.0833894 0.03430636 -0.12543516 -0.077531785 -0.06266501 0.022349397 -0.13230401 -0.13656905
-0.10628429 -0.023905475 -0.07273434 -0.11620399 -0.03422374 -0.07598587 -0.031592056 -0.098476835
-0.07301844 -0.04504406 -0.14696531 -0.11053874 -0.0578105 -0.008867477 0.06410285 -0.08821008
-0.024380539 0.01974914 0.042840227 0.05856646 0.036852803 0.011268354 -0.074042186 -0.05709065
0.024846906 0.08928248 0.0009965155 -0.09400127 -0.0621967 -0.014897135 0.08568145 0.0056538903
-0.1293382 0.06588952 -0.046154417 0.09297097 0.008485709 -0.013369768 -0.064399615 -0.011404512
0.081341445 -0.03178227 -0.06829475 -0.07597662 -0.05738044 -0.07648141 -0.08034312 0.16671345
0.06771485 -0.04242069 -0.15910092 -0.057227068 0.24562202 0.087449685 -0.09982687 -0.19093153
-0.027521478 0.17484798 0.10757619 -0.0672476 -0.034762044 0.04251118 0.2776133 0.01916419
-0.090970695 0.04936757 0.1224386 0.099033214 0.03156525 -0.06807414 -0.0636967 0.061682075
0.050010536 -0.025054695 -0.0758484 -0.03101487 0.11070062 -0.07215746 -0.027085442 0.022528626
-0.03930349 0.09685961 -0.08314325 -0.05160502 -0.068146825 0.00591207 -0.030649034 -0.06751588
0.0032842974 0.022154251 -0.07706612 -0.037732225 -0.026876502 -0.054117523 0.056784604 -0.09201459
-0.12764683 0.15618894 0.13955022 -0.009726285 -0.107118905 -0.032303963 0.18627048 -0.049522206
-0.035685048 -0.07762019 0.100961946 -0.036797002 0.010179082 -0.04977856 -0.05012235 -0.02898409
0.04189835 0.028893864 0.044252384 -0.06770734 0.0034069284 0.071239494 -0.023639418 0.078291275
0.20683505 -0.05866767 -0.16388124 -0.07199063 0.12375916 0.14271757 -0.10700388 -0.119704776
-0.03860891 0.05595099 0.004685033 -0.22360699 -0.18668577 0.05508707 0.016456988 -0.11305563
-0.18010168 -0.098371826 0.07794698 -0.022180432 -0.045028597 -0.08144454 -0.010056067 0.06429369
-0.06515655 -0.18729281 -0.05321361 -0.057905715 0.006285206 -0.05746851 -0.00034500484 -0.056168783
-0.048316028 -0.048156828 0.10035349 0.034420893 -0.13537067 -0.092613384 -0.032370154 0.0021078577
-0.12799154 -0.10737756 0.0061024656 0.0106613 -0.03838331 -0.07583228 0.07189389 0.09512797
-0.009266717 -0.054995466 0.03798545 0.08946343 0.009036883 0.034416184 0.04499667 0.10497335
0.20682453 -0.06420229 -0.07961552 -0.0070902384 0.16256054 0.03603694 -0.044654083 -0.040049765
0.03790717 0.0944484 -0.110194035 -0.020435799 -0.105213955 0.0857634 -0.023089334 -0.046406638
-0.087732814 -0.1135462 0.05480016 0.00958997 -0.23375991 0.028184552 0.22575647 -0.0057761483

conv2.bias f4 [16]
00000000: caaf 00bd 961f 4e3d bfa3 27bc 123e 213d
00000010: d67e b23d 3b6f 733d b0a5 93bd 2790 ebbc
00000020: 6eaa 803d 6252 4cbd bdf0 45bc af49 0abd
00000030: d4a5 153d fcc1 f83c f5ef 7fbd 0c5b b4bd
-0.031417646 0.05032309 -0.010231911 0.039365835 0.08715598 0.05943225 -0.07209337 -0.02875526
0.06282507 -0.049883254 -0.012081322 -0.033761676 0.0365351 0.030365936 -0.0624847 -0.08806428

fc1.weight f4 [120, 256]
00000000: 753b e03d 848c 773d d830 48bd 4d0a 34bd
00000010: 185c 043d a20d 87bd e935 c4bc fbb9 21bc
00000020: eac0 8f3d 9bb9 94bb d2e6 9cbd 8f83 10bd
00000030: 79f8 6b3d 5848 4b3d 33e7 3bbb 1022 ecbb
00000040: f625 51bb 2800 383d 379a a83c 38c6 9d3c
00000050: c250 733d a105 ce3c 7eeb bb3d 5701 313d
00000060: 4cf5 9b3d 9b3d 2abd e437 d2ba 6385 d63a
00000070: 2483 ef3a 2f54 b3bc 21b8 3f3d 8b74 bbbb
00000080: 6795 ea3c 1aba ba3c 6b34 6c3c 8ecd b53b
00000090: 7138 12bd 3d8a f13c a388 d839 5793 b7bb
000000a0: bcee 403d 8235 6ebd cd6d 263d 44fe 44bd
000000b0: 2753 023d de92 383c 1242 b93c ded9 5bbd
000000c0: ad2a a63d 751e 92bc 3319 0ebd f339 89bc
000000d0: 2f87 dd3d e281 5e3d b9de c0bc ab81 3f3d
000000e0: 74aa ae3c 0493 803b ff8d f23c 3e1e 993d
000000f0: 30ee 45bc b834 063d d04c 16bd 5d29 68bc
00000100: 1b58 183d b7b3 3bbc 3bac 68bc 74ca e13c
00000110: f4b2 81bc 9802 f43c 39da 253d 96e4 713d
00000120: 185b 2fbd 4c95 373c 583f b43d 2a7a 75bb
00000130: d956 e0bd 0afb 84bd 1404 c0bd 668b 32bd
00000140: ff19 863c 9a00 c9bd 3146 00bd f955 f53c
00000150: 3a62 cf3c 9002 8c3c 7265 51bc eaed 7c3d
00000160: 6820 f13d 688e ab3d 1592 873d de5b ee3b
00000170: aeb7 353d 1e0d f4bc 356c 843d f905 2dbc
00000180: 5531 123d e2a4 b33c 9686 09bd 9535 6fbd
00000190: 630f 75bb ba63 473d cdc8 bc3c 8a2a 32bd
000001a0: e176 8bbb b8e3 8bbd 74ab 0dbc b190 3fbd
000001b0: 491a 70bd 704c edbc 0689 e83c b51e 273d
000001c0: 5a85 f6bc a8aa eabc 609e 4c3d c001 82bd
000001d0: 095d 273b db73 a2bd 6917 07bd 909e 033d
000001e0: 08b5 333d befa 1e3d fe0d 773d 4d4a c2bc
000001f0: 60cc 973d f90d 12bd 6c32 c93c b659 33bd
00000200: cac6 653c 7cc7 4bbd 71c1 f1bb 61d5 10bd
00000210: 5229 e53c fac9 0e3c c859 7ebc acc2 0a3d
00000220: 1a8a 1d3d e6fb 493d c34b 7b3a 1adb 2d3d
00000230: 4d2e b8bd e80c ad3c 2a50 dfbc 97fd debc
00000240: a363 b63c 3eb6 63bd 7b80 a63c bbca 593d
00000250: a65c f33b cd9f 553d 757d 39bc f38b b03c
00000260: cb47 b63c 1457 fe3c 4a14 3ebc da83 34bd
00000270: d772 0e3c 9c2c 2e3d 2fad b1bc 6c9e e63c
00000280: 38a5 5b3c 1e55 1e3d 4421 d9bc 63f0 123d
00000290: e48c 9b3d 72dd 8e3c c37e 50bd 6d67 e83b
000002a0: 41d6 f1bc f191 693c 87af 00bd 3ef1 5ebc
000002b0: f162 323c 1a07 8a3d a8cf ae3d db1c c23c
000002c0: 4567 fd3d 5cae 05bc 69d3 b63d 0c6e 8abc
000002d0: 65b8 8a3d 82d1 11bd 440a a93d b314 173c
000002e0: 4418 f0bc 26bd d5ba a596 71bd 3ca6 d4bd
000002f0: 2711 d9bc 30ab 2a3d d507 4e3d b2a2 2b3d
00000300: 9a31 72bd a2bf 4c3c 2445 0f3c bde3 4abd
00000310: 6717 a13b 7c90 8fbd 93f1 9c3c 7d3d 2d3d
00000320: 5278 753d a207 45bc b1e3 ec3b 1aaa 8c3d
00000330: 0792 823d 77bf bbbc 1393 11bd e516 063d
00000340: 41cc 3c3d 4853 3c3d 5659 c2bc 399d aebc
00000350: e602 193d 5a36 863d 8b9b 49bc ea8e c13c
00000360: ea4c 743c c27b 823c b63e 40bd 2b88 513d
00000370: 9432 563c 367b 283d eecc c13c bb68 b13d
00000380: 7ca3 40bd 885f 09bc 7047 113d 041b e03c
00000390: 85aa 873d e0d1 04bd eeff 8dbd d862 9b3b
000003a0: 4efa 3abc 4d7b 93bc 53f5 5a3d a6a0 90bd
000003b0: a206 4eba 3537 3e3c f8c6 ee3c ccc2 0cbd
000003c0: 277b 96bd 0acd b03b eb0c 973d c4d0 dcbc
000003d0: 00fb d93b f5df 3c3d caa6 dd3c d8f8 9dbd
000003e0: 3b97 963c cf72 913c f26c 873d 93a2 4fbc
000003f0: 0d9d 1e3d 8ffa 9bbc dad7 4fbc d9a3 2a3c
0.109488405 0.06043674 -0.048874706 -0.043955136 0.03231439 -0.06594397 -0.023951488 -0.009871001
0.07019217 -0.0045387275 -0.07661213 -0.035281714 0.05761001 0.04962954 -0.002867174 -0.007206209
-0.0031913496 0.044922024 0.020581348 0.019259557 0.05940319 0.025149168 0.09175776 0.04321417
0.07615146 -0.041562658 -0.0016038385 0.0016366657 0.0018273336 -0.021890728 0.04680646 -0.00572068
0.028635694 0.022793818 0.014416794 0.0055481857 -0.035698358 0.029484862 0.00041300533 -0.005602281
0.047102675 -0.058156498 0.040632058 -0.04809405 0.03181758 0.011265485 0.022614513 -0.05367457
0.081136085 -0.017836789 -0.034692 -0.016751265 0.108168 0.054323085 -0.023543702 0.04675452
0.021321513 0.0039237756 0.029608725 0.07476471 -0.012080714 0.03276512 -0.036694348 -0.014170018
0.0371934 -0.011456422 -0.014201219 0.027562357 -0.015832402 0.029786393 0.040491316 0.059055887
-0.042811483 0.011205029 0.08801144 -0.0037456849 -0.10954065 -0.064931944 -0.09375778 -0.043589972
0.016369818 -0.09814568 -0.03131694 0.029948222 0.025315393 0.017091066 -0.012780534 0.06175033
0.11773759 0.08376771 0.0661966 0.007274135 0.044364624 -0.029791411 0.06465951 -0.010560506
0.035691578 0.021929208 -0.033575617 -0.05840071 -0.0037393204 0.04867909 0.023044968 -0.0434976
-0.004256115 -0.06830543 -0.008646835 -0.046768848 -0.058618817 -0.028967112 0.02838565 0.04080077
-0.030092884 -0.028645828 0.049955726 -0.0634799 0.002553763 -0.07932254 -0.03298131 0.03213364
0.043873817 0.038813345 0.06031608 -0.02371707 0.07412028 -0.035657857 0.024560176 -0.043786727
0.014024446 -0.04975079 -0.0073777963 -0.035359744 0.027973805 0.008715147 -0.015524335 0.03387706
0.038461782 0.049312495 0.00095861795 0.04244528 -0.08993206 0.021124318 -0.027259905 -0.02722053
0.022264307 -0.05559372 0.020324936 0.053171854 0.007426816 0.05215435 -0.011321415 0.021551108
0.02225103 0.031047381 -0.011601517 -0.044071056 0.008694372 0.04252301 -0.021689026 0.028151713
0.01340609 0.038655393 -0.02650512 0.035873782 0.07595232 0.017439578 -0.05090214 0.0070924074
-0.02952111 0.014255987 -0.031417396 -0.013607321 0.010887847 0.06739636 0.08535701 0.0236954
0.12373213 -0.008159246 0.08927042 -0.016898178 0.06773452 -0.035600193 0.08253911 0.009221244
-0.029308446 -0.0016306981 -0.058981556 -0.10383269 -0.026497437 0.041667163 0.050300438 0.041903205
-0.059129335 0.012496861 0.008744512 -0.049533594 0.00491612 -0.0700998 0.01915816 0.042294968
0.0599292 -0.012025746 0.0072292914 0.06868382 0.06375509 -0.022918446 -0.03554065 0.032736678
0.04609323 0.04597786 -0.02372424 -0.021315204 0.03735628 0.065533355 -0.012305151 0.023627717
0.014910916 0.015928153 -0.046934806 0.05115525 0.013073582 0.041133128 0.023657288 0.08662554
-0.04703091 -0.008384593 0.03546852 0.027356632 0.06624321 -0.032426715 -0.0693358 0.0047420077
-0.011412216 -0.01800313 0.053456616 -0.07061891 -0.0007859265 0.011609842 0.02914761 -0.03436546
-0.07347708 0.0053955363 0.07375511 -0.026955016 0.006652236 0.04611202 0.02705707 -0.07713479
0.01838266 0.01775494 0.066125765 -0.012673038 0.038723994 -0.019040374 -0.01268574 0.010415041

fc1.bias f4 [120]
00000000: 2a59 813c e542 1abc 1a68 a93c 951d f2bb
00000010: 5044 0e3b 37c4 763d b296 1abd c42d 913b
00000020: 48d7 81bc 5214 2d3d 465d 393d 449a dabc
00000030: 5cc4 c8bc 5616 5dbd 753c 333d 760f 3e3d
00000040: fd00 47bc 39bb 363d e53a 723d 69a2 153d
00000050: c9a3 573c 2093 e9bc 4db3 53bd e384 303c
00000060: 8b87 24bd c1dc 593d a9d2 f339 dcd0 233c
00000070: 5e07 a13c 675f c6bc 85e9 0e3d 4cd4 3c3d
00000080: 87ed 543d dbaa 5cbd 64c6 303d 86ba ad3c
00000090: 7e66 783c 02ec ac3b f0be f3bc d78d 09bd
000000a0: 07a7 de3c f609 223d 350b 5cbd 24e4 253d
000000b0: b425 763d bd05 23bc 9f58 543c cdfe 44bd
000000c0: 3154 20bd b4ff 803d f854 a83a fdfb 4c3b
000000d0: 1fc4 6c3d 7316 b73c 1e16 2abd 65b3 40bd
000000e0: ef7c d0bc 41b1 90bc 8354 caba 6fc7 733d
000000f0: 154a 1dbd 637e 7b3d b78f 273d 6a42 293c
00000100: f09a 7bbc 3bf7 1bbc d622 1b3d 3c05 f93c
00000110: b59b f13c 55ad e0bc 438a 77bd d7cb 6fbd
00000120: 4053 bc3c c437 623d 223d eeb8 189e 4f3d
00000130: 9326 c03c d342 613d e230 163d 806c d8bc
00000140: 48fa be3c 3063 06bb 8fdf 42bc a919 433d
00000150: c4dc ff3b 17f5 6f3d b7d8 1dbd 252f 833c
00000160: d89a 883c 8c74 673d 549f 49bc f1bc 3d3d
00000170: 5af0 d93b 90c7 2ebd 0300 c6bc 094b c2bc
00000180: 6e55 d7bc 7883 823c 4d78 bb3b 5492 3dbb
00000190: 0998 6d3c 6210 68bd 8e7a 21bd f0a1 21bd
000001a0: 2f66 eebc 8a01 8fbb d317 c73b 73df 0cbd
000001b0: 17b2 813c d22b f0bc 7c6e d0bc 9f66 1abc
000001c0: 450e 3bbd 7a0a 0d3d a9b1 d93c 4c5f f83b
000001d0: f680 85bc 047f 47bd 57fd 723d ce5f f3bc
0.015789587 -0.009415363 0.020679522 -0.0073887804 0.0021708198 0.06024572 -0.03774137 0.0044305045
-0.015849724 0.042255707 0.045254968 -0.026684888 -0.024507694 -0.05397638 0.04375883 0.046401463
-0.012146232 0.044612143 0.059138197 0.03653184 0.013161608 -0.028512537 -0.051684666 0.01077387
-0.040168326 0.053189043 0.00046505526 0.009998526 0.019656833 -0.024215413 0.03489067 0.0461009
0.051984336 -0.053873878 0.04315795 0.021207105 0.015161155 0.0052771578 -0.029754132 -0.033582535
0.027179254 0.03956028 -0.053721625 0.040500775 0.06009455 -0.009950099 0.012960582 -0.04809456
-0.03914279 0.062987715 0.0012842705 0.0031278126 0.057804223 0.022349572 -0.041525 -0.047046084
-0.025450198 -0.017662646 -0.0015436563 0.059516367 -0.03840073 0.06139983 0.04090854 0.010330776
-0.015356764 -0.009519394 0.03787502 0.030398004 0.029493192 -0.027426401 -0.06043459 -0.058544006
0.022988915 0.055228963 -0.00011360111 0.05068788 0.023455894 0.05499537 0.036667712 -0.026418924
0.023312703 -0.0020505898 -0.011894121 0.047631893 0.0078082997 0.058583345 -0.038536754 0.016013691
0.016675398 0.056507632 -0.012306053 0.046322767 0.0066509666 -0.042670786 -0.024169927 -0.02371742
-0.026285853 0.01593183 0.005721128 -0.002892633 0.01450158 -0.05665625 -0.039423518 -0.039461076
-0.02910146 -0.004364197 0.006075838 -0.034392785 0.01583199 -0.02931777 -0.025443308 -0.009423881
-0.045667905 0.03443382 0.026573973 0.0075797196 -0.016296845 -0.048705116 0.059323635 -0.02970877

fc2.weight f4 [84, 120]
00000000: 4fa5 2f3d 3831 57bd 3211 fa3c 6ab5 cf3b
00000010: 9321 473d 10b4 00bd afe9 58bd d39c 32bd
00000020: 633e 8abd 86ba babd 084e 953d 20d8 683d
00000030: 9844 153d ede1 483d 98f9 c2bd 2f7f 683d
00000040: 0513 693d 086c 81bd c91d a9bd d304 c1bd
00000050: f06d 353c 2336 193d 31fd 39bc 3c7b 913c
00000060: 112c 5abd 6880 a33d 8742 923d 4480 7d3d
00000070: e23b 883d 160c c23c d595 14ba 9641 223d
00000080: ba26 babd f903 c53c 4764 913d ac94 b03c
00000090: ca7a d7bd 1bf5 08bc 4743 a4bd 12d7 8e3d
000000a0: 98bb 3f3d edaf 9e3c 9c51 e73a 7913 bfbd
000000b0: 97be 4f3d ae9f 93bd 8328 2e3d acd6 70bd
000000c0: 855a 9dbd da5c b0bd ace5 4dbd f0a9 31bd
000000d0: 2339 c13b d8ac 85bd 6510 6fbd af93 4dbd
000000e0: 04d2 97bd aaed 4ebd 90cd 3c3c 59a1 783c
000000f0: 5ddd 94bd a9fb 8dbd 1d06 7abc a254 a9bd
00000100: b716 b53d 9aa5 a23d 67f8 3abd 5376 e63c
00000110: 8e44 8a3d 68f1 273d 2eba 46bd daf7 e3bc
00000120: 997a 403d f45f 343b e92c 4abd dba4 273d
00000130: d100 08bd 92c9 353c 3e60 8f3d c927 a4bd
00000140: 0141 83bc d162 bfbd 6c11 84bc 7b26 ec3c
00000150: 9922 c13d 75a6 af3b a987 35bd 3ce0 593d
00000160: 27e7 03bc 80aa afbd b51c 30bd 8fb2 f9bc
00000170: f9a2 3d3d 57ce 0c3c 1d03 8c3d 2a2d 803c
00000180: fd8e 0c3d 267e bebd 0e8a 3b3d 48e9 2ebd
00000190: 9eab 89bd baff 683d 6ea9 97bd f491 613d
000001a0: 8e9e 713d d764 973d fb6f 473d 59dd b1bd
000001b0: 7ffb 08bd d15b 133d b192 95bd b464 4fb8
000001c0: 280e abbd 1ab7 9bbc 9e80 473d bd7b b73d
000001d0: 145d 5ebd 8918 e7bb 8ca8 7cbd 0263 12bd
000001e0: d0e3 463d da72 ef3c 76c1 903d 76ff 4f3d
000001f0: 129a bdbd 60d5 77bc eac2 0b3d d274 9e3d
00000200: 9c49 65bd 01c1 b5bb d5bb 04bd 390f da3c
00000210: 530e 97bc 8b8e 0cbd 9bbd 9c3d dbb4 88bd
00000220: d75f 983d 6c31 97bd 0361 233c 9e4d 81bd
00000230: 6808 05bd 3253 38bd a679 8abd 4ba8 213d
00000240: 7a17 99bd 03a0 7fbd 146c 45bd 204b 81bd
00000250: 7acc 7e39 5ccf 93bd bc81 dbbc 3e62 9fbd
00000260: a38e 473d 7157 fbbc 23ff 50bc 8cba e63b
00000270: 8250 d2bd 7f4b d9bc 0517 eb3a af49 e93c
00000280: adcb cd3c 34ef 39bd 06d5 5fbd 03ca 87bc
00000290: f16d 54bd 06e8 863b bb60 553d 5bb6 b4bd
000002a0: c154 423d 8ecd a73d ad63 bcbc 5824 af3d
000002b0: c509 c0bc 3d84 f73c 4c61 1fbd cf16 3ebc
000002c0: c948 023d 317f 8dbd 6e63 9a3d 73ad abbc
000002d0: 8d1e a5bb f9cd 06bd ef8c 42bd 0fa3 a33d
000002e0: 8698 9abd eaec 03bd 4c3c 243d 8cd8 97bd
000002f0: d09a 0d3d 1bc9 bf3d 651e 293d 7be2 1b3d
00000300: b8c6 073c 86d7 8f3d daf4 623d 88fd 7c3d
00000310: d566 863c b9eb e63d 671d a63d 5333 273d
00000320: f3fd b1bd 4847 b4bc a120 a8bb 270f 9abd
00000330: 06af 21bd 7021 b1bd 5964 9f3c 6c1a 933d
00000340: 1789 24bd 10d3 813d d857 acbb 1433 87bd
00000350: 4830 703d a37e 1abd 753a 74bc 4c03 683c
00000360: ba26 70bd c5b6 c2bc bfa7 893d c64c f7bc
00000370: 92f2 9fbd 5ee0 7dbc 051a 20bd 75a1 823d
00000380: 9519 dfbc b154 2b3d c1a4 b33d 27e8 a5bd
00000390: b266 7a3d 0335 0cbd 85f8 733d 04ef 82bc
000003a0: 0fbe 56bd 9573 fabc 7ab4 713d 6179 20bb
000003b0: 01e7 13bb 76aa 18bd bf67 a3bd ec87 ec3c
000003c0: 663e 113d e6ea 66bd 038f 593d bb96 ad3d
000003d0: 035a ec3d c7de 96bc 3a17 d1bc f8ec 6e3d
000003e0: 0a42 283d ffb6 52bd da34 babc de47 2dbd
000003f0: ffeb 76bd ddbc 7b39 4c8d 8ebd fbcc 893d
0.04288226 -0.052537173 0.030525777 0.006338765 0.048616003 -0.03142172 -0.052957233 -0.04360659
-0.067501806 -0.09117608 0.07290274 0.056846738 0.03644237 0.049043585 -0.095202625 0.056761917
0.056902904 -0.063194335 -0.08257634 -0.09424748 0.011073574 0.037405144 -0.011351869 0.017758958
-0.05326468 0.07983476 0.07141595 0.0618899 0.06652047 0.023687404 -0.00056680787 0.03961333
-0.09089418 0.024049746 0.070992045 0.021555267 -0.10521467 -0.008359219 -0.08020645 0.06974615
0.046809763 0.019370997 0.0017648223 -0.09329886 0.05071887 -0.07208191 0.042519104 -0.058798477
-0.07683281 -0.0861146 -0.05026786 -0.043374956 0.005896704 -0.06527108 -0.058365244 -0.05018967
-0.07413104 -0.050519623 0.011523619 0.015175187 -0.07268784 -0.06932766 -0.015260247 -0.082680956
0.08842223 0.07941742 -0.04564705 0.028132593 0.06751357 0.041001707 -0.0485174 -0.027828146
0.04699192 0.0027523013 -0.049359236 0.040928703 -0.033203904 0.011095421 0.070007786 -0.08015401
-0.016022207 -0.093450196 -0.016121589 0.028826943 0.09430427 0.0053604194 -0.04431883 0.053192362
-0.0080507165 -0.08577442 -0.042996127 -0.030480651 0.046298 0.008594117 0.06836531 0.015646536
0.03431605 -0.09301405 0.045785956 -0.042702943 -0.067221865 0.056884505 -0.07405363 0.055070832
0.0589891 0.073922805 0.048690777 -0.08684797 -0.03344297 0.035976235 -0.0730337 -4.9446433e-05
-0.083523095 -0.019008208 0.048706643 0.08959148 -0.054287985 -0.0070524854 -0.061684176 -0.035738952
0.048557103 0.02922957 0.0706815 0.050780736 -0.09257902 -0.015126556 0.03412143 0.077371255
-0.055978402 -0.0055466895 -0.032405693 0.026618587 -0.018439448 -0.034315627 0.07653352 -0.066751204
0.07440155 -0.07382473 0.00997186 -0.063136324 -0.03247872 -0.045001216 -0.06761484 0.039467137
-0.07475181 -0.06240846 -0.048198774 -0.06313157 0.00024299501 -0.07217285 -0.02679526 -0.0778241
0.048720013 -0.030681344 -0.012756142 0.007041281 -0.10269262 -0.026525257 0.0017935938 0.028477518
0.025121534 -0.045394138 -0.054646514 -0.016575819 -0.05186266 0.004117015 0.052094202 -0.08823844
0.04744411 0.08193503 -0.022996748 0.08551854 -0.023442158 0.030214423 -0.03891115 -0.011602118
0.031807695 -0.069090255 0.07538496 -0.02095673 -0.0050390423 -0.032911275 -0.047497686 0.07990085
-0.07548623 -0.03220836 0.040096566 -0.0741435 0.03457147 0.0936453 0.041288752 0.038057785
0.008287124 0.0702353 0.05540929 0.061765224 0.016406456 0.11275429 0.08111077 0.04082043
-0.08691015 -0.022006646 -0.005130843 -0.07522421 -0.039473556 -0.08648956 0.01945703 0.07182774
-0.0401698 0.06339085 -0.005259495 -0.06601539 0.058639795 -0.037718426 -0.014906515 0.014160942
-0.058630683 -0.023768792 0.06721448 -0.030187976 -0.078099385 -0.015495388 -0.039087314 0.06378452
-0.027233878 0.041828815 0.08771659 -0.0810092 0.061133094 -0.034230243 0.05956318 -0.015983112
-0.052427348 -0.030572692 0.059010006 -0.002448641 -0.002256811 -0.03727194 -0.07978772 0.028873406
0.0354599 -0.05637636 0.053114902 0.08476015 0.11540606 -0.018416775 -0.02552377 0.05833146
0.041078605 -0.05144405 -0.02273028 -0.042304866 -0.060283657 0.00024007582 -0.06960544 0.0672855

fc2.bias f4 [84]
00000000: 7627 6cbd a66b 49bd 6b49 61bd 4986 ac3d
00000010: 9df3 ee3d 6055 a63d 09eb 3ebc 909f aa3b
00000020: 2ceb 8f3d 1362 493d 0654 053d 5721 43bd
00000030: b474 d43d 2af2 8c3d d659 9b3d 7949 d53d
00000040: 65ec 8bbd 521e 89bd c4f0 ac3d 68e3 363d
00000050: a04b c0ba 9655 4d3c 7027 233d 7fa2 263d
00000060: 529b adbc 5d99 40ba b235 d93d 2c5a a93d
00000070: 883e 2c3d c189 803d 5fb1 7ebd 2d08 13bc
00000080: 2161 a93d 005d 87bd d810 f53c 7503 de3d
00000090: 107e 533d 907f b8bd 05c3 a7bc a713 44bd
000000a0: d4e4 93bc 8357 a4bc 7aaa 62bc 7a45 893d
000000b0: 19b4 8c3d c416 f33b 37b1 4b3d 752f 3c3d
000000c0: a11b df3d 87da 843d 5391 fb3c 8a34 3d3d
000000d0: fbed 56bd 3573 ab3d 1c70 363d fb05 f83c
000000e0: a95b 2a3d 04a8 3bbd d413 c1bd af29 9ebc
000000f0: c158 56bd 5e59 73bd a008 b3bc 2bcb 143c
00000100: 238f 093d d253 293c 0885 b03d e202 afbd
00000110: 8e22 523d eafc fa3c d2fd 3dbd 403e 8139
00000120: e946 8e3d 40e4 ba3d 20e2 083d fb76 c6bd
00000130: a9cf a33d aa3c b53c 2957 863d 7f46 66bc
00000140: 886b f33b 8f19 963d e7bd 243d add2 c53d
-0.05765482 -0.049174927 -0.055001657 0.0842405 0.11667559 0.08121753 -0.011652716 0.0052070096
0.07027277 0.049165796 0.032550834 -0.047639217 0.10373822 0.06882127 0.07585494 0.104144044
-0.06832198 -0.06695236 0.0844436 0.044650465 -0.0014670976 0.012532612 0.039832532 0.040682312
-0.021192227 -0.00073470717 0.10605945 0.08269152 0.042051822 0.062762745 -0.062180873 -0.008974117
0.08270479 -0.06609535 0.029915258 0.10840503 0.051633894 -0.090087056 -0.020478735 -0.047870304
-0.01805345 -0.02006126 -0.01383459 0.06702705 0.068702884 0.0074184854 0.049729552 0.045943696
0.10893942 0.06486993 0.030708944 0.046192683 -0.05247305 0.08371583 0.04454051 0.03027629
0.04159132 -0.04581453 -0.0942761 -0.019306986 -0.052330736 -0.0594114 -0.021854699 0.009081642
0.03358377 0.010334926 0.08619124 -0.08545472 0.051302485 0.030638177 -0.04638464 0.00024651177
0.06947119 0.091255665 0.033418775 -0.096906625 0.079985924 0.022123653 0.06559593 -0.0140548935
0.00742859 0.07329094 0.040220167 0.09659324

fc3.weight f4 [10, 84]
00000000: 8219 cc3d e4be 473d b07d 103e f37d 6dbe
00000010: 31a1 1ebe d2f4 4b3d ebfc ccbd 1d2c 5e3c
00000020: f2a3 cfbd bb21 c3bd 8726 b3bd 5d7d b83d
00000030: 67d5 2a3e 1f04 0bbd 9520 1e3d e0d2 59be
00000040: cc2f 9fbd e13f 2e3d 724e 4dbd d9ca 4cbd
00000050: 1893 153e 90d0 24bd 9d2d 9bbd 1b1c 02bd
00000060: 8fbb df3d 376f 21be f291 43be efa5 3c3e
00000070: 961f 06be 5b8c 8ebd ec9e b13b b9bc 1c3e
00000080: ebe7 623d 8721 b5bd b547 3ebd e88c c1bd
00000090: ae25 c3ba 8f80 d8bd 0d21 853d 58a9 653e
000000a0: 27a6 8bbd 6efa 94bc 19a0 033e 81f7 7e3e
000000b0: c9e8 2f3e be66 cf3c ecbc d63d 5eb5 633e
000000c0: 8571 80be afaa 923d b464 83bd bf8f 3ebe
000000d0: d442 203d 694d 0fbe fe5b 12be 1ff9 b1bd
000000e0: 0415 aa3d 1f24 463e f009 8dbd 7b3f a83d
000000f0: 0253 a63d 32ea 483d 1ba3 41bd 010b 953d
00000100: 8fa8 3abe 7ae6 a63d c133 9dbd e097 cbbd
00000110: 6a5c 3cbe 5534 81bd d7a5 a73c 2fb9 0abd
00000120: 7608 28be 0fb6 613e bf5a 85bd ebf0 123e
00000130: ff84 02be 0d28 1abe a724 1d3e eef1 bc3c
00000140: 9498 e2bc e2e2 ed3b 65b2 fbbc 47cd 45be
00000150: 9cec 943d 44c1 c6bc 7087 623d 5304 213e
00000160: d69b c23d f918 97bd 58a0 1bbe 4f90 b73d
00000170: 1538 003e 9d92 8abd 792c 173d 3ff0 533d
00000180: e600 843e 60d5 d33d 6213 c6bb 3718 84bd
00000190: 40d3 d9bd 3b30 97bd 070b a0bd b426 82bd
000001a0: 2e7b f3bc 2a12 03bb 1bcc 1f3d e6d8 82ba
000001b0: 65d3 74bd 6094 3d3e 24b2 2d3e f807 393e
000001c0: 7288 28bd fe52 6d3e 2bd3 3c3c c540 d13c
000001d0: af33 0dbd 6f00 08be c5e7 89be 4222 393e
000001e0: fd9e 02be f705 ca3d 48ac 2fbc 5cbc 51be
000001f0: 35ea 8ebd cadf 10be 1f86 583d 8bfe 46be
00000200: eb7b 3b3e b911 3ebb 923e 32be 88dc dabd
00000210: 195f 81be f41b 5c3c eeef 7ebe 8d4b 043e
00000220: f2aa ae3d dc13 9d3d 4423 893d c211 60be
00000230: 9739 2abe 2912 3bbe 1475 aa3c 90a6 2cbd
00000240: f472 cd3c 4a1f 0f3e 09df c53c e64b 803e
00000250: 547d c23d dfe4 1ebd 8c29 463e 84a9 debd
00000260: 9be5 c5bd f57b 643d 8de9 d4bd f9fd 483e
00000270: 2953 293e 0b19 023e 5f85 73bd f454 913c
00000280: 5a5a 463e faad 603c d81b 87be 8c21 84bd
00000290: 351b e4bd cf5c febc 0fe6 803d 3d1f 573e
000002a0: bb6b cbbd ced7 ad3d 9dc6 92bd 4e96 82be
000002b0: 7ccd 373e 6de1 033e 37d5 a9bd 560d a13d
000002c0: 24af f0bd 0aa0 c03d 256d cebd 7005 22bc
000002d0: 0180 ff3d 3541 99bd 3e94 d9bc d810 41be
000002e0: 0173 cebc 2df4 3f3d 6f60 673e 3056 8f3d
000002f0: d152 9dbd a1da 89bd 62da 8fbd 5589 e1bb
00000300: 786c 00be c91e fe3d 991c 33bd cb3c ee3d
00000310: f499 22bd 72c9 513e 0db9 143d 38af 523e
00000320: 5536 7c3d 820e e63d 3448 8abe 20b8 4b3e
00000330: 2f7d 033e 3bcc f53c 43ec 4c3b c1fd b73d
00000340: 97c2 5d3e 5fc9 7b3d a518 cbbd 59f8 3a3c
00000350: 7685 413d 08fa 8dbd 4291 a73d 145f 963d
00000360: 3ccd b4bd 2e0c 423d 1286 123e 002b 2a3e
00000370: 8562 a0bd f54f a33d a628 29be d8e6 1dbe
00000380: 6793 52be d015 e4bc 9bba 7fbc 8ad1 27bd
00000390: 8d1e a6be f0ab 353e 4f4b 533d 9833 e43c
000003a0: 5e74 3bbe e5fd 2dbd 5c28 39be f6ea 87bd
000003b0: 8061 133e 6626 69bd 474a a03d d565 ca3d
000003c0: c44c 5d3e 2ed0 34be d10f 34bc 2af4 043d
000003d0: f770 a7bd 97b0 c13d 1637 113e 74bd be3d
000003e0: 8c7a e0bd 9023 f5bd 418b dc3d 261f cb3d
000003f0: f6c5 bebd be54 8a3d 9687 2b3d 7aa7 473e
0.09965803 0.04876603 0.14110446 -0.23192577 -0.15491177 0.049794026 -0.10009178 0.013560322
-0.10138692 -0.09527918 -0.08747583 0.09008286 0.16682969 -0.033939477 0.03860529 -0.21271849
-0.077727884 0.04254139 -0.05012364 -0.049998138 0.14606893 -0.040237963 -0.075770594 -0.031765085
0.10924446 -0.15765081 -0.19098642 0.18422674 -0.13097987 -0.069603644 0.0054205563 0.15306367
0.055396955 -0.088442855 -0.046455104 -0.09450704 -0.0014888549 -0.105713956 0.065004446 0.22427881
-0.068188004 -0.01818582 0.12854041 0.24899103 0.17178644 0.025317546 0.10485253 0.22237155
-0.2508661 0.071614616 -0.06415692 -0.18609522 0.039126232 -0.13994373 -0.14292905 -0.08690094
0.0830479 0.19349717 -0.06886661 0.08215233 0.08121301 0.04905147 -0.04727469 0.072774895
-0.18228363 0.08149429 -0.07675887 -0.09941077 -0.18394628 -0.0630881 0.02046482 -0.03386801
-0.16409478 0.22042106 -0.06511449 0.14349715 -0.12746046 -0.1505434 0.15346013 0.02306458
-0.027660646 0.0072597126 -0.030724714 -0.19316588 0.07271692 -0.024262078 0.055304945 0.15724306
0.095023796 -0.0737781 -0.15197885 0.089630716 0.12521394 -0.067662455 0.036907647 0.05174279
0.25781935 0.103434324 -0.006044791 -0.06449931 -0.10635996 -0.07382246 -0.07814603 -0.06355038
-0.029721823 -0.001999984 0.03901301 -0.0009982854 -0.059771914 0.18513632 0.16962487 0.18069446
-0.04114575 0.2317619 0.011524956 0.02554358 -0.034473117 -0.13281415 -0.2693464 0.18079475
-0.12755962 0.09864419 -0.010722227 -0.2048201 -0.06978265 -0.14147869 0.052862283 -0.19433038
0.1830899 -0.0029002263 -0.17406681 -0.10686594 -0.25267866 0.013434399 -0.24896213 0.12919445
0.08528699 0.076698035 0.066961795 -0.21881774 -0.16623531 -0.18268646 0.02080778 -0.042151034
0.025079228 0.1397678 0.024154203 0.25057906 0.09496561 -0.038792487 0.19351786 -0.10872176
-0.096629344 0.055782277 -0.10396109 0.19628133 0.1653563 0.12704866 -0.059453364 0.017740704
0.19370404 0.013713354 -0.2638843 -0.06451711 -0.11138002 -0.031050114 0.0629388 0.2100801
-0.09932657 0.08488427 -0.07166789 -0.25505298 0.1794948 0.12878962 -0.08292621 0.07863872
-0.117521554 0.09405525 -0.100794114 -0.009888992 0.12475587 -0.074831404 -0.026559945 -0.18854082
-0.025201323 0.046863724 0.2259538 0.06998861 -0.076818116 -0.06731153 -0.07024075 -0.0068828263
-0.12541378 0.124082156 -0.043728445 0.11632689 -0.039697602 0.20487002 0.03630929 0.20574653
0.061575253 0.11233236 -0.27008212 0.19894457 0.12840723 0.030004611 0.0031268753 0.089839466
0.21656261 0.06147134 -0.0991681 0.01141175 0.04724642 -0.06932455 0.081820026 0.073423535
-0.08828208 0.047374897 0.14308956 0.16617966 -0.07831291 0.07974235 -0.16519412 -0.15420091
-0.20564042 -0.027842432 -0.015608455 -0.040971316 -0.32445183 0.1774137 0.05158549 0.027856633
-0.1830611 -0.04247846 -0.18081802 -0.06636612 0.14392662 -0.056921385 0.07826667 0.09882704
0.21611315 -0.17657539 -0.010990099 0.032459415 -0.08175843 0.0945751 0.1418117 0.09313479
-0.10960874 -0.11969674 0.10768748 0.099180505 -0.09315102 0.067544445 0.04187735 0.19497481

fc3.bias f4 [10]
00000000: d8de 933d 7c07 fb3d 9244 5dbd f9c8 9bbd
00000010: f023 803c 6cfc c03c a96e e33c cf49 a33d
00000020: be65 b13d a94c ee3d
0.072202384 0.12257287 -0.054020472 -0.07606692 0.015642136 0.023557864 0.027762728 0.07973062
0.08661984 0.116357155
