save_model/mnist-lenet.pth (torch, 181701 bytes, 10 tensors)

conv1.weight f4 [6, 1, 5, 5]
0	0xbe8a30f0	-0.2699046
1	0xbe6d825c	-0.2319426
2	0x3e38f809	0.18063368
3	0x3ee12b8e	0.43978542
4	0x3e1fd79a	0.15609589
5	0xbeb49807	-0.35272238
6	0xbe37614f	-0.17908214
7	0xbea45bef	-0.3210139
8	0x3f08fd0e	0.5351113
9	0x3eda885b	0.42682156
10	0xbece4ab3	-0.40291366
11	0xbe61f7c7	-0.22067176
12	0xbda84e02	-0.08218004
13	0x3e9be795	0.3045012
14	0x3eaeac3b	0.34115776
15	0xbea10f16	-0.31456822
16	0xbe54e8cf	-0.20791934
17	0xbc98dba1	-0.018659415
18	0x3ec9a346	0.3938238
19	0xbd80ecc3	-0.06295159
20	0x3d8f49ab	0.06996473
21	0xbe49926a	-0.19684759
22	0xbd00b250	-0.031420052
23	0xbccae2fb	-0.024766436
24	0x3cfefa58	0.031125233
25	0xbe0eee22	-0.13958028
26	0xbdc7b0f1	-0.09750546
27	0xbe831f18	-0.2560966
28	0xbe96ab9c	-0.29427803
29	0xbe0dca19	-0.13846625
30	0x3d7b3a80	0.061335087
31	0xbf4336b2	-0.76255333
32	0xbf4c2208	-0.7973943
33	0xbe882033	-0.26587066
34	0xbcf08b80	-0.029363394
35	0x3e520825	0.2051092
36	0x3cb4b157	0.022057218
37	0x3edf836b	0.4365495
38	0x3ef48b7c	0.47762668
39	0x3ddbf5ba	0.10740228
40	0x3ea53231	0.32264856
41	0x3f2f71dd	0.68533117
42	0x3f2c0394	0.6719296
43	0x3deeafb0	0.116546035
44	0x3dbd1849	0.09233148
45	0xbcc31362	-0.023812953
46	0x3e17c60c	0.14821643
47	0xbe74242f	-0.23841928
48	0x3d128b99	0.035777662
49	0xbca9f159	-0.020744966
50	0xbd922c3f	-0.071373455
51	0x3ddb64dd	0.107125975
52	0xbe0586db	-0.13039725
53	0xbb9d1d80	-0.0047947764
54	0x3dbe90a0	0.09304929
55	0x3e072531	0.13197781
56	0xbe6e4ab5	-0.23270686
57	0xbe90e5da	-0.28300363
58	0xbe1aa30f	-0.15101264
59	0x3eb74879	0.3579748
60	0xbee0c974	-0.43903697
61	0xbedc420f	-0.4301915
62	0xbed600a2	-0.41797358
63	0x3ebb7c45	0.36618248
64	0x3ef63865	0.480899
65	0xbef79b0a	-0.48360473
66	0xbe19ad71	-0.15007569
67	0x3ea490b1	0.3214164
68	0x3f4b6b74	0.79460835
69	0x3e6bc898	0.23025739
70	0x3dedd62f	0.11613118
71	0x3e354fb7	0.1770619
72	0x3f16303c	0.5866735
73	0x3e865fcf	0.2624497
74	0xbee33518	-0.44376445
75	0x3dbfeca5	0.09371308
76	0x3e71e2ba	0.23621646
77	0x3e7e1e95	0.24816354
78	0x3f120425	0.57037574
79	0x3d8aff3d	0.06786964
80	0x3e31aaac	0.17350262
81	0xbcc5464b	-0.02408137
82	0xbe21adcb	-0.15788953
83	0x3ea00dcf	0.31260535
84	0x3db33aae	0.08751427
85	0xbd361dcc	-0.04446201
86	0xbe26f8ce	-0.16305849
87	0xbe8f54e1	-0.27994445
88	0xbbca985f	-0.006182715
89	0x3ec3f758	0.38274646
90	0xbe8ac718	-0.2710502
91	0xbe0d7693	-0.13814764
92	0x3d9e93f0	0.077430606
93	0x3eeef315	0.46669832
94	0x3ea7069d	0.32622233
95	0xbde91507	-0.11380964
96	0x3e65f25a	0.22455731
97	0x3ecdaaaf	0.40169284
98	0x3e94d33b	0.29067406
99	0xbe0577d7	-0.13033997
100	0x3e546002	0.20739749
101	0x3ec0b6fc	0.37639606
102	0x3e33e5c7	0.17568122
103	0xbd4f2b1e	-0.05057823
104	0xbe282103	-0.16418843
105	0x3dc707b6	0.097182676
106	0x3da6b49e	0.08139919
107	0xbe188d61	-0.14897682
108	0xbe025cf9	-0.12730779
109	0xbea5b932	-0.32367855
110	0x3e20257a	0.15639296
111	0xbe272e3c	-0.16326231
112	0xbe853713	-0.2601858
113	0xbe8c8cdb	-0.27451214
114	0xbe3a5a9c	-0.18198627
115	0xbd0e0fd3	-0.03468306
116	0xbe76d008	-0.24102795
117	0xbea0b12a	-0.31385165
118	0xbe70869e	-0.23488852
119	0xbd6601b2	-0.05615396
120	0xbe0ff199	-0.14057006
121	0xbe9cccc6	-0.3062498
122	0xbdd97eef	-0.10619914
123	0xbd59d93b	-0.053185683
124	0x3d71c52d	0.059025932
125	0x3eab0f96	0.3341033
126	0x3f17e56a	0.59334433
127	0x3f3e5435	0.7434724
128	0x3f22c7d6	0.63586175
129	0x3ea107da	0.31451303
130	0xbe1d7a64	-0.1537872
131	0x3e8120bd	0.2522029
132	0x3e7a63aa	0.24452081
133	0x3e997cbc	0.29977977
134	0x3e84119a	0.2579468
135	0xbec16ca2	-0.37778193
136	0xbee7a876	-0.45245713
137	0xbe6ac057	-0.22924934
138	0xbe62eb4a	-0.22160068
139	0x3e2acbb1	0.16679265
140	0xbe1550b1	-0.14581563
141	0xbf123920	-0.57118416
142	0xbf2aa765	-0.66661674
143	0xbed6a3b6	-0.41921777
144	0xbd2417a5	-0.04006161
145	0xbdbbb181	-0.091647156
146	0xbd12690e	-0.03574472
147	0xbe119723	-0.1421781
148	0xbdcc18e3	-0.09965684
149	0xbe787791	-0.24264361

conv1.bias f4 [6]
0	0xbdbd8e7e	-0.09255694
1	0x3e1ca861	0.15298606
2	0x3e53bc10	0.20677209
3	0x3ccf5e9f	0.025313674
4	0xbefffd8a	-0.49998122
5	0x3de36bbf	0.11104535

conv2.weight f4 [16, 6, 5, 5]
0	0xbc44a7b8	-0.012002878
1	0xbc800786	-0.015628587
2	0xbe5c9111	-0.21539713
3	0xbbce7655	-0.0063007274
4	0x3b970de4	0.00460981
5	0xbe19b92c	-0.15012044
6	0xbbb5e4cc	-0.0055509564
7	0x3d82b7f6	0.06382744
8	0x3d2b27d1	0.04178602
9	0xbd94cf1c	-0.072660655
10	0xbd61c893	-0.055122923
11	0x3d2b94c6	0.04188993
12	0x3dd5f035	0.104462065
13	0x3cc89a7e	0.02448773
14	0xbe7f7890	-0.24948335
15	0xbda08da0	-0.07839513
16	0x3e2041df	0.15650128
17	0xbd3d06fc	-0.04614924
18	0xbd87cff9	-0.066314645
19	0x3c415d19	0.011801981
20	0xbde1d8e2	-0.11027695
21	0x3d3a8607	0.045537975
22	0xbd1b2f81	-0.0378871
23	0xbe1484fb	-0.14503853
24	0xbdeddc16	-0.11614244
25	0x3cf24c1e	0.029577311
26	0xbe07b7ae	-0.13253662
27	0xbe3a4f4b	-0.1819431
28	0x3dbe41da	0.09289904
29	0x3e5ebf08	0.2175256
30	0xbda19205	-0.07889179
31	0xbd9ef27f	-0.07761096
32	0x3d8c26c2	0.0684333
33	0x3de3d0f3	0.11123838
34	0xbce0fa16	-0.027463
35	0xbde4b553	-0.11167397
36	0xbe077b77	-0.13230692
37	0x3d972692	0.073804036
38	0xbc221c86	-0.009894496
39	0x3d3c065b	0.0459045
40	0xbcc50ea6	-0.024054836
41	0xbe07c264	-0.13257748
42	0xbe0588ff	-0.13040541
43	0xbd25703f	-0.04039025
44	0xbb1c537f	-0.0023853478
45	0xbcea752e	-0.028620329
46	0xbe25199f	-0.16123055
47	0x3d41af8b	0.04728655
48	0x3e070524	0.13185555
49	0x3d570645	0.052496213
50	0x3c845bdd	0.016157085
51	0xbd93cae3	-0.07216432
52	0x3ced0010	0.028930694
53	0x3ea4adf0	0.32163954
54	0x3ebea17b	0.37232575
55	0xbe029091	-0.1275046
56	0x3ddfed27	0.10933905
57	0x3e82fba4	0.25582612
58	0x3e828895	0.2549483
59	0xbd9ced0e	-0.07662402
60	0x3d220b47	0.039561536
61	0x3e41c394	0.18922263
62	0x3dd6135f	0.104529135
63	0xbdc9d473	-0.098549746
64	0x3d05cae5	0.0326642
65	0xbe018fdc	-0.12652534
66	0x3e151843	0.14560036
67	0xbe079637	-0.13240896
68	0xbe37b09a	-0.17938462
69	0xbc5f36ee	-0.013623936
70	0xbdb6b1e7	-0.08920651
71	0x3d32ba9f	0.043635007
72	0xbd51380a	-0.051078834
73	0xbe4e36ba	-0.20138064
74	0x3d590f5e	0.05299317
75	0x3cda6110	0.026657611
76	0x3d09c7fa	0.033637978
77	0x3d921a12	0.07133879
78	0x3d8a3243	0.06747868
79	0x3d3cc335	0.0460846
80	0xbde85eb3	-0.113461874
81	0x3d1e6dfa	0.0386791
82	0x3c6e4263	0.014542195
83	0xbdae5b90	-0.08513558
84	0x3b182b71	0.0023219252
85	0xbd5fcb96	-0.054637514
86	0x3da68683	0.08131125
87	0xbddb1763	-0.1069782
88	0xbdfd4382	-0.12366392
89	0x3d875f9d	0.06610034
90	0xbd2dfc5a	-0.04247699
91	0xbdd6c47f	-0.104866974
92	0xbdbf5aeb	-0.09343513
93	0xbda8f8d3	-0.082505845
94	0x3c966c13	0.01836208
95	0xbd94d3a4	-0.0726693
96	0x3d179cfd	0.03701495
97	0xbdb9f9cb	-0.09080847
98	0x3c0898a7	0.008337176
99	0x3d0a429d	0.033754934
100	0xbcdc6cdd	-0.026907379
101	0x3dfe983e	0.12431382
102	0x3e748cf0	0.23881888
103	0x3e63ac6c	0.22233742
104	0xbdb14a5a	-0.086567596
105	0x3d2c0a4d	0.04200201
106	0x3e123e0b	0.1428148
107	0x3e5ec9b0	0.21756625
108	0xbd167e8d	-0.036741782
109	0xbc4eb386	-0.012616044
110	0x3dd797b4	0.10526982
111	0x3d38187a	0.044945218
112	0x3caaf8d9	0.020870613
113	0x3d97f58c	0.07419881
114	0xbd236b8d	-0.03989749
115	0xbde404a4	-0.11133698
116	0xbbdefefd	-0.0068052993
117	0xbd81e578	-0.06342596
118	0xbac9ffac	-0.0015411279
119	0xbe138911	-0.14407755
120	0xbb131d9f	-0.0022448075
121	0xbd3166d0	-0.04331094
122	0xbe03f304	-0.12885672
123	0xbe41327f	-0.18866919
124	0xbccd4979	-0.025059449
125	0x3d46c857	0.048530903
126	0xbcc848c1	-0.024448754
127	0x3d544ef2	0.0518331
128	0xbd43ecad	-0.047833133
129	0xbd5993ea	-0.053119577
130	0x3d35bf62	0.04437197
131	0xbe1387f5	-0.14407332
132	0xbe8d3dc1	-0.27586177
133	0xbd481020	-0.048843503
134	0x3cc14f6c	0.023597442
135	0xbe5715e3	-0.21004443
136	0xbeaae8a4	-0.33380616
137	0xbe005add	-0.12534662
138	0x3d81a003	0.06329348
139	0x3bb581f2	0.0055391723
140	0xbe866c70	-0.26254606
141	0xbe88600b	-0.26635775
142	0xbda2d37f	-0.07950496
143	0xbda32efd	-0.07967947
144	0xbbe93ee8	-0.0071180947
145	0xbe4b1139	-0.19830789
146	0xbe4976c2	-0.19674209
147	0xbdc99df2	-0.09844579
148	0xbde4655d	-0.11152146
149	0x3dda04bf	0.106454365
150	0x3d386793	0.04502065
151	0x3e0f2378	0.13978374
152	0x3e2ad060	0.16681051
153	0x3e283f20	0.1643033
154	0x3dadf0d0	0.08493197
155	0xbd8dfed0	-0.06933367
156	0xbd359b9f	-0.044337865
157	0x3c958098	0.018249795
158	0x3cbf01b3	0.02331624
159	0xb9ce3a57	-0.00039334848
160	0xbe5376b5	-0.20650752
161	0xbe6c4c59	-0.23076
162	0xbce12a07	-0.02748586
163	0xbe4507f1	-0.1924131
164	0xbe036895	-0.12832864
165	0xbe29bcee	-0.16575977
166	0xbd519ff4	-0.051177934
167	0xbd4be636	-0.049780093
168	0xbd89193f	-0.066942684
169	0xbe4af304	-0.19819266
170	0x3df37ec1	0.11889411
171	0x3df1c51f	0.11805176
172	0xbc868dcf	-0.016425041
173	0x3bfe2b3e	0.0077566197
174	0x3d5355d9	0.051595543
175	0xbe7db804	-0.24777228
176	0xbe14f15e	-0.145452
177	0xbd563eb2	-0.052305885
178	0xbd8a36dc	-0.06748745
179	0xbdcb60e1	-0.099305876
180	0xbd8a19fc	-0.067432374
181	0xbe104810	-0.1408999
182	0x3c806f10	0.015677959
183	0xbe358220	-0.1772542
184	0xbe7efbdc	-0.24900764
185	0xbd462544	-0.048375383
186	0x3da60995	0.081072964
187	0xbd31d00b	-0.043411296
188	0xbd9bd9dc	-0.07609913
189	0xbe70787e	-0.23483464
190	0x3e5da834	0.21646196
191	0x3df79065	0.12088088
192	0x3e7f654f	0.2494099
193	0x3e97bb7a	0.2963522
194	0x3e8122e3	0.2522193
195	0x3dd125fa	0.102123216
196	0x3d0cc3fd	0.034366596
197	0x3d866c1d	0.0656359
198	0x3e061aec	0.13096207
199	0xbda97e16	-0.08276002
200	0xbe1687d0	-0.14700246
201	0xbdfdcf3d	-0.12393043
202	0xbdc4f882	-0.096177116
203	0xbb6eb5a4	-0.0036424184
204	0x3d86f507	0.06589704
205	0xbe63b3c9	-0.22236551
206	0xbe2e2095	-0.17004617
207	0xbdb6bc09	-0.089225836
208	0xbd508e03	-0.050916683
209	0xbe2d8d21	-0.16948368
210	0xbda3ed79	-0.08004279
211	0xbd6deb48	-0.05808571
212	0xbc66380f	-0.014051451
213	0xbe6714da	-0.22566548
214	0xbe6c0620	-0.23049212
215	0x3e93c917	0.28864357
216	0x3e7b90a6	0.24566898
217	0x3df94e86	0.1217318
218	0xbdc28324	-0.09497669
219	0xbdfb0662	-0.12257077
220	0x3ead9467	0.33902285
221	0x3e68d2a4	0.22736603
222	0x3d999176	0.074984476
223	0xbe0d22ce	-0.13782808
224	0xbe1e7474	-0.15474111
225	0xbdb09026	-0.08621244
226	0x3cb2e124	0.021835871
227	0xbcfed713	-0.031108415
228	0x3d6765bb	0.056493502
229	0x3d831b9b	0.0640175
230	0xbe231560	-0.15926123
231	0xbd0d6359	-0.034518573
232	0x39b6cfa0	0.00034868438
233	0x3b889d42	0.004169137
234	0xbd50bf09	-0.050963435
235	0xbd57126d	-0.052507807
236	0xbbe7f50d	-0.007078773
237	0xbb33d63e	-0.002744093
238	0xbcd09d85	-0.025465736
239	0xbd9272c1	-0.07150794
240	0x3c09c086	0.008407718
241	0xbd0a9b3f	-0.03383946
242	0x3d21a7d0	0.03946668
243	0xbd863fa8	-0.0655511
244	0xbdf82de6	-0.121181294
245	0x3e153bc2	0.14573577
246	0xba173b2d	-0.0005769011
247	0x3d0a5f19	0.0337821
248	0xbd0124ce	-0.03152924
249	0xbc3fd0f2	-0.011707531
250	0x3dfa65bd	0.12226436
251	0xbbb671fb	-0.0055677867
252	0xbe0c9887	-0.1373006
253	0xbda46b84	-0.080283195
254	0xbdea7507	-0.114481024
255	0x3e1e0577	0.15431772

conv2.bias f4 [16]
0	0x3c361966	0.011114454
1	0xbd007302	-0.03135968
2	0x3a826fa7	0.0009951488
3	0xbc95b2bd	-0.018273706
4	0xbd8f9a00	-0.07011795
5	0xbd9b2e20	-0.07577157
6	0xbd96ec1d	-0.07369254
7	0xbbfe4d7b	-0.0077607012
8	0x3c5d953b	0.013524349
9	0xbd5da79a	-0.054114915
10	0x3d49a7a3	0.049232136
11	0xbd378d60	-0.04481256
12	0xbd854300	-0.0650692
13	0x3d167c6d	0.036739755
14	0x3d474432	0.04864902
15	0xbd60aa02	-0.054849632

fc1.weight f4 [120, 256]
0	0x3bd7502d	0.006570837
1	0xbd8f7714	-0.07005134
2	0x3d6f18ba	0.05837319
3	0xbda4eaec	-0.0805262
4	0x3d8a7a70	0.06761634
5	0x3d4051e2	0.04695309
6	0xbc048ab7	-0.008089713
7	0xbdb3d9bf	-0.08781766
8	0x3dd6f08d	0.104951
9	0xbc3d1114	-0.011539716
10	0x3a89abf8	0.0010503521
11	0xbd449f1d	-0.048003305
12	0xbc50f65b	-0.012754048
13	0xbdabb453	-0.083840035
14	0x3d2b6712	0.041846342
15	0xbd5fdac1	-0.05465198
16	0xbc94b05b	-0.0181505
17	0x3d6fad22	0.05851472
18	0x3daf7db0	0.08568895
19	0xbd3ea04c	-0.04653959
20	0xbcd0e21d	-0.025498444
21	0xbd8faac3	-0.07014992
22	0xbd1f8201	-0.03894234
23	0x3c68dd54	0.014212925
24	0xbcd7d6b1	-0.02634749
25	0x3d646e96	0.055769525
26	0x3ca78a57	0.020451708
27	0x3c189133	0.009311962
28	0x3d2b34ce	0.041798405
29	0x3d1a80f4	0.037720636
30	0x3d992c03	0.07479098
31	0xbb084b79	-0.0020796938
32	0x3d8b94ff	0.06815528
33	0xbc92143c	-0.017831914
34	0x3d0360e0	0.03207481
35	0x3d93809e	0.07202266
36	0x3daf731d	0.08566878
37	0x3c2a8e66	0.010409927
38	0x3ba56d01	0.0050483947
39	0x3da68070	0.08129966
40	0x3c086205	0.008324151
41	0xbc78797b	-0.015165682
42	0x3c84f3ff	0.016229628
43	0x3d2e3290	0.04252869
44	0xbd460dd6	-0.04835304
45	0xbe2bd7d7	-0.16781555
46	0xbdbac212	-0.09119047
47	0xbcf4d3f2	-0.02988622
48	0x3d04dd12	0.03243739
49	0x3c80b89e	0.015713032
50	0xbd834f34	-0.06411591
51	0x3c6478d1	0.0139448205
52	0x3c3f44b4	0.011674095
53	0x3d5a5702	0.053305633
54	0xbd4298c8	-0.047508985
55	0xbbee876d	-0.0072793276
56	0x3d4598d4	0.04824145
57	0x3cd4580e	0.025920894
58	0x3d55dd67	0.0522131
59	0x3624d861	2.4563853e-06
60	0x3cd454c5	0.025919328
61	0x3ccf684c	0.025318287
62	0x3d1579c9	0.036493097
63	0x3c4b4a9b	0.012407924
64	0xbd9f9c37	-0.077934675
65	0x3d003afa	0.031306244
66	0x3da62cd0	0.08114016
67	0x3d96eec0	0.07369757
68	0x3c269e9a	0.0101696495
69	0xbcf53de9	-0.029936748
70	0xbd151d7a	-0.036405064
71	0x3ce74927	0.028233124
72	0xbd66f30e	-0.05638414
73	0x3db07ab8	0.08617157
74	0xbc6755f4	-0.014119614
75	0xbccfc2df	-0.025361476
76	0x3cd5809c	0.026062302
77	0x3baeffd0	0.005340554
78	0xbc7f195a	-0.015570009
79	0x3c46d1f9	0.012135022
80	0xbdb1b785	-0.08677582
81	0x3da69f65	0.08135871
82	0xbb58d6e0	-0.003308706
83	0xbd3dbd70	-0.04632324
84	0x3daddada	0.08489008
85	0x3cf41ac8	0.029797927
86	0xbd229dd6	-0.039701305
87	0x3d8b12e4	0.067907125
88	0x3c8523e4	0.016252466
89	0xbd89144f	-0.06693327
90	0xbce6c582	-0.028170351
91	0x3c53dec5	0.01293153
92	0xbd0ffa20	-0.035150647
93	0x3dcc3c6b	0.09972461
94	0xbcb3c8a8	-0.021946266
95	0x3d9ef222	0.07761027
96	0xbd8a1f4f	-0.06744253
97	0xba01f04a	-0.00049567653
98	0x3db8da49	0.090260096
99	0xbc0bd26d	-0.008534056
100	0x3a491400	0.0007670522
101	0xbd0ca60d	-0.034338046
102	0x3d0d9768	0.03456822
103	0x3cf4cd2a	0.029882986
104	0xbd4a838d	-0.049441863
105	0x3e25345e	0.16133258
106	0x3c8bd82f	0.017070858
107	0xbca6c3cc	-0.020357035
108	0x3d7faee9	0.062422667
109	0x394bbce1	0.00019429951
110	0x3dc7e590	0.097605824
111	0x3dbf6443	0.09345295
112	0xbd4a1648	-0.049337655
113	0xbcbe8b6f	-0.023259846
114	0xbd501b3d	-0.050807226
115	0x3bfd6a64	0.00773363
116	0xbd20c9bc	-0.03925489
117	0xbdae6d6d	-0.08516965
118	0x3d721021	0.059097413
119	0xbcc083a1	-0.023500266
120	0x3d65b845	0.056083936
121	0x3c12251d	0.008919981
122	0xbd5f243b	-0.05447791
123	0xbd8c419f	-0.06848454
124	0xbd8a5575	-0.06754581
125	0x3c0e9562	0.008702608
126	0x3ce213d7	0.027597351
127	0xbc91dd1f	-0.017805634
128	0x3ccfa44e	0.025346901
129	0xbd3b6bfb	-0.045757275
130	0xbc83a7cf	-0.016071228
131	0x3ce2c739	0.027682887
132	0xbcfe51f0	-0.03104493
133	0x3c2a726c	0.010403257
134	0xbb1b1227	-0.0023661943
135	0xbd39c0c4	-0.04534985
136	0x3e10af64	0.14129406
137	0x3d8e56fe	0.06950186
138	0xbd1b8486	-0.03796818
139	0xbc3fe3cd	-0.011712027
140	0x3d518a0a	0.051157035
141	0x3ce51a3c	0.027966611
142	0xbc602a6f	-0.013681992
143	0xbda32992	-0.07966913
144	0x3c7e8134	0.015533734
145	0xbb304937	-0.0026899108
146	0xb9f97348	-0.00047578872
147	0xbc56932d	-0.013096613
148	0x3d3f3e6c	0.04669039
149	0x3cd70dec	0.026251756
150	0x3cfe3b6e	0.031034198
151	0x3cef69a3	0.029225176
152	0xbbaadc30	-0.0052142367
153	0xbca8effe	-0.02062225
154	0x3d19dd9c	0.03756486
155	0xbd337d94	-0.043820933
156	0xbb9bcb8f	-0.0047544907
157	0xbb903558	-0.0044008903
158	0xbda71ae7	-0.08159428
159	0xbc8ae342	-0.016954068
160	0xbd4b7489	-0.049671683
161	0x3cca1657	0.024668856
162	0xbb9c7127	-0.004774231
163	0xbc8eac12	-0.017416034
164	0xbd02b89b	-0.031914335
165	0x3c61c505	0.013779883
166	0x3cbbab79	0.022908913
167	0xbd6bad79	-0.057538483
168	0xbd86d098	-0.06582755
169	0xbc923692	-0.017848287
170	0x3dd3aca7	0.10335665
171	0x3d677081	0.056503776
172	0xbdac23c4	-0.08405259
173	0xbd72b3df	-0.05925357
174	0xbc96dee0	-0.018416822
175	0xbd033f96	-0.032043062
176	0x3d6278fb	0.055291157
177	0x3c947a82	0.018124823
178	0x3b9d065f	0.0047920193
179	0x3d8021d1	0.0625645
180	0xbcea9c67	-0.028639032
181	0xbd8aeb04	-0.06783107
182	0xbcf12ee9	-0.029441314
183	0xbd945703	-0.07243159
184	0xbd2a36b0	-0.04155606
185	0xbc0f48dd	-0.008745399
186	0xbdf6ad63	-0.1204479
187	0xbd810fb7	-0.063018255
188	0xbd683c19	-0.05669794
189	0x3c2dae87	0.010600693
190	0x3db7c636	0.089733526
191	0x3e0b4364	0.13599926
192	0xbd518383	-0.05115081
193	0xbd3ebc3c	-0.046566233
194	0x3ce539d0	0.027981669
195	0x3cfea46e	0.031084266
196	0xbc8b4fdc	-0.017005853
197	0xbbb6f795	-0.0055837133
198	0xbb428734	-0.0029682638
199	0xbc2962a8	-0.010338463
200	0xbbc0bc2f	-0.005881808
201	0xbcc30899	-0.02380781
202	0x3d60adb1	0.054853145
203	0xbd08d83e	-0.03340935
204	0xbde8c34d	-0.11365376
205	0xbda5bf4a	-0.08093126
206	0xbd921346	-0.07132582
207	0x3ba734ae	0.0051027155
208	0xbc98285b	-0.01857393
209	0xbcaaf755	-0.02086989
210	0xbc1ba32d	-0.009499353
211	0x3d25462d	0.040350128
212	0x3d2b385b	0.04180179
213	0x3c8c96a6	0.017161679
214	0xbb84fef6	-0.004058714
215	0xbda93b75	-0.08263294
216	0xbd0446f5	-0.032294232
217	0xbd2851cf	-0.041093644
218	0x3d667fb9	0.05627415
219	0x3cba4d9b	0.022742083
220	0xbd090350	-0.033450425
221	0xbca5519b	-0.020180514
222	0xbd8776fd	-0.06614492
223	0xbddeb628	-0.10874587
224	0xb978a3fc	-0.00023712212
225	0x3c53c593	0.012925523
226	0xbd65a388	-0.05606416
227	0xbd3482ce	-0.044070058
228	0xbd8793a1	-0.06619955
229	0xbd328cc3	-0.043591272
230	0xbda396f4	-0.079877764
231	0xbd59797d	-0.053094376
232	0x3dce85f1	0.10084141
233	0x3dc6ccb2	0.09707011
234	0xbd0c1def	-0.034208234
235	0x3c9aa16c	0.0188758
236	0x3d8f1bb1	0.069877036
237	0x3dcf113d	0.1011071
238	0x3cf0935f	0.029367147
239	0x3d86bb39	0.06578679
240	0xbd9e3bfb	-0.07726284
241	0xbd604ca5	-0.054760594
242	0xbd125474	-0.035725072
243	0xbd29fbe8	-0.041500002
244	0xbd6db071	-0.058029596
245	0xbd8642ae	-0.06555687
246	0xbce78b9f	-0.028264819
247	0xbdddddff	-0.10833358
248	0xbc30284b	-0.010751794
249	0x3d3647dc	0.044502124
250	0xbd9e6792	-0.07734598
251	0xbd564b48	-0.052317888
252	0x3d87e8ce	0.06636201
253	0xbdd2c1d8	-0.10290879
254	0xbdc7fad4	-0.097646385
255	0xbde523e1	-0.11188484

fc1.bias f4 [120]
0	0x3c5c5ad4	0.0134493895
1	0x3d44dc92	0.048061915
2	0x3cbb06b6	0.022830348
3	0xbb66f778	-0.0035242718
4	0x3d072bc9	0.03300074
5	0xbd637709	-0.055533443
6	0x3d66c4b7	0.056339946
7	0x3d03d30e	0.0321837
8	0xbc9da7e6	-0.0192451
9	0xbc83e9ce	-0.016102698
10	0x3d9419c5	0.07231478
11	0x3cf7f7a2	0.030269448
12	0xbc4ba964	-0.012430523
13	0x3d9e4e1a	0.077297404
14	0xbcb8f58c	-0.022578023
15	0xbbe3e97e	-0.0069553247
16	0xbd7fd497	-0.0624586
17	0x3aa35f09	0.0012464236
18	0x3d47365c	0.048635826
19	0xbd51d357	-0.05122694
20	0xbd82a55a	-0.063791946
21	0x3d09b1d5	0.03361686
22	0x3c942cee	0.01808783
23	0xbd1c21bb	-0.038118105
24	0xbccf9aae	-0.025342312
25	0xbd0e100d	-0.034683276
26	0xbc8b61b7	-0.017014368
27	0x3c990fd5	0.018684307
28	0xbd51b563	-0.051198374
29	0x3ce68caf	0.028143255
30	0xbd346f0d	-0.04405122
31	0xbd1bb63a	-0.03801558
32	0x3d151bcd	0.036403466
33	0x3d508263	0.050905596
34	0xbd4ae31f	-0.049533006
35	0xbcc72fa9	-0.024314718
36	0xbcea0783	-0.028568035
37	0x3d5857f5	0.052818257
38	0xbcdc88a2	-0.02692062
39	0x3cb50a51	0.022099646
40	0x3cb6e53a	0.0223261
41	0x3d8d41b5	0.06897298
42	0xbd2d54ef	-0.042317327
43	0xbc508b7c	-0.012728568
44	0xbd3c5ae2	-0.04598511
45	0x3d1ce3eb	0.038303297
46	0xbca25280	-0.01981473
47	0xbd4973fd	-0.04918288
48	0x3d6066b2	0.054785438
49	0x3d1fa94a	0.038979806
50	0x3d92701d	0.0715029
51	0xbd577c6b	-0.05260889
52	0x3d539a75	0.051660974
53	0xbcf1149d	-0.029428774
54	0x3cf0e8b0	0.029407829
55	0xbcac4c47	-0.021032466
56	0xbc0210e2	-0.0079385955
57	0xbc5a3d4a	-0.0133202765
58	0xbd5b28d0	-0.05350572
59	0xbc1c906f	-0.00955592
60	0x3d1886fd	0.03723811
61	0x3d7ff34a	0.062487878
62	0xbc5c15fe	-0.013432978
63	0x3c8cff6f	0.017211644
64	0x3d468826	0.048469685
65	0xbce29dc2	-0.027663115
66	0xbc7fc1c9	-0.015610167
67	0xbd0b8ae9	-0.034068022
68	0xbcc674cb	-0.024225613
69	0x3c9fb699	0.019496249
70	0x3c8ec040	0.017425656
71	0x3cab2d0e	0.020895507
72	0x3d7e176f	0.062034067
73	0x3ce5677b	0.028003445
74	0xbbff1bec	-0.007785311
75	0x3cef9813	0.02924732
76	0xbb54899e	-0.003243066
77	0x3d5c706f	0.053818163
78	0xbcd0fd99	-0.02551155
79	0x3c883d5b	0.016630819
80	0x3d6996af	0.05702847
81	0x3bda1f2f	0.0066565494
82	0xbc20e611	-0.009820477
83	0x3d448001	0.047973637
84	0xbd086493	-0.03329904
85	0xba0d3203	-0.00053861755
86	0x3d44c4b9	0.04803917
87	0xbc0218db	-0.007940496
88	0x3c04a0a0	0.008094937
89	0x3d3d2c93	0.046185087
90	0xbc9d8889	-0.019230144
91	0xbd58b55d	-0.052907337
92	0xbc394ff3	-0.011310565
93	0xbc843222	-0.016137186
94	0x3d84fb7d	0.0649328
95	0x3c572253	0.013130742
96	0x3d0e48fb	0.03473757
97	0xbbae6afe	-0.005322813
98	0x3d0c4c93	0.034252714
99	0xbd631edc	-0.05544935
100	0x3cdaa8c7	0.026691807
101	0x3d5c08cf	0.053719338
102	0x3be8e254	0.0071070585
103	0x3d051cf9	0.032498334
104	0xbd762259	-0.06009135
105	0xbbdfe2e9	-0.0068324697
106	0xbcd53d2a	-0.026030142
107	0xbc173292	-0.0092283655
108	0xbd2366a0	-0.039892793
109	0x3c34d8c8	0.011038013
110	0xbb0f835f	-0.0021898372
111	0xbd05a884	-0.032631412
112	0xbce2d8ca	-0.027691264
113	0xbc3f4fcb	-0.011676739
114	0xbd2f85f7	-0.04285237
115	0x3c987476	0.01861022
116	0x3c8df0ed	0.017326796
117	0x3cc026e1	0.023456039
118	0xbd38d4f9	-0.04512498
119	0xbcfaa5b5	-0.030596593

fc2.weight f4 [84, 120]
0	0xbd3808ff	-0.044930454
1	0x3d32dc93	0.043667387
2	0xbd658747	-0.056037214
3	0x3d57305d	0.052536357
4	0x3df830ad	0.12118659
5	0x3cec19bf	0.02882087
6	0xbd8cb553	-0.06870522
7	0x3e0a428a	0.13501945
8	0x3cbb6ebd	0.022879953
9	0x3d5e09e5	0.054208655
10	0x3ca51b1f	0.020154534
11	0xbd927c9d	-0.07152674
12	0x3d8b5f19	0.06805248
13	0x3c946e95	0.018119136
14	0xbce26f52	-0.027640972
15	0xbcca0cc6	-0.024664294
16	0xbde38867	-0.11110001
17	0xbdb3b538	-0.08774799
18	0xbdf0941f	-0.11747002
19	0xbe0f5b9c	-0.1399979
20	0x3e02a5fe	0.12758633
21	0x3de0ded5	0.10980002
22	0x3cb0facf	0.02160397
23	0xbdf4eb7d	-0.11958978
24	0xbde55ece	-0.11199723
25	0xbcba1027	-0.02271278
26	0x3dbbbc30	0.09166753
27	0xbd0abdf0	-0.033872545
28	0x3d71ec36	0.05906316
29	0xbd98e6ee	-0.07465921
30	0xbda1737e	-0.078833565
31	0x3d69a332	0.0570404
32	0x3d32ae7d	0.043623436
33	0xbdb67705	-0.0890942
34	0xbcd32af5	-0.02577732
35	0xbcfe6bb9	-0.031057226
36	0x3c649693	0.013951915
37	0xbd08933d	-0.033343542
38	0x3cd9bd25	0.026579449
39	0x3af77215	0.0018878604
40	0x3c241b6d	0.010016304
41	0xbcbc8cea	-0.023016412
42	0x3dc5f385	0.09665588
43	0x3d0dd0e5	0.034623045
44	0xbc953992	-0.018215928
45	0xba0ae699	-0.0005298644
46	0xbe01a2f6	-0.12659821
47	0x3c5f9e7a	0.013648624
48	0xbe5b9260	-0.21442556
49	0xbaa3ec39	-0.0012506313
50	0x3d4fe4f6	0.050755464
51	0x3da0184c	0.07817134
52	0xbca87fe5	-0.020568797
53	0x3d91ef3e	0.0712571
54	0xbdd6449f	-0.10462307
55	0xbc9052ac	-0.017617546
56	0x3da29bd6	0.079398796
57	0xbdb6be39	-0.08923001
58	0xbd3a6e0c	-0.045515105
59	0x3c95f51a	0.01830535
60	0x3e318346	0.17335233
61	0xbdfe4fd7	-0.12417572
62	0x3d96268d	0.07331572
63	0xbd64130c	-0.055682227
64	0x3d9ef480	0.077614784
65	0xbd729bc7	-0.059230592
66	0xbcf9d5fa	-0.03049754
67	0x3bb26dc8	0.005445216
68	0x3d0ec4dd	0.034855712
69	0x3de147a7	0.10999995
70	0xbca20f94	-0.019782819
71	0x3dd54134	0.10412827
72	0x3e041d0b	0.12901704
73	0x3d51c16b	0.05120985
74	0xbd9c6eee	-0.07638346
75	0x3b46190c	0.0030227331
76	0x3c669b9d	0.014075187
77	0x3d6ba644	0.05753161
78	0xbd727176	-0.059190236
79	0xbb6dc6b9	-0.0036281778
80	0xbd17759a	-0.036977388
81	0xbc7aa021	-0.015296967
82	0xbd6f6fe7	-0.058456328
83	0x3d659d68	0.056058317
84	0x3da5bde5	0.0809286
85	0x3c422384	0.011849288
86	0xbdb648b6	-0.08900587
87	0x3d67cb0f	0.056590136
88	0xbd21d7a8	-0.039512306
89	0x3d171ebe	0.036894552
90	0xb9db9627	-0.00041882807
91	0x3b6142e3	0.0034372143
92	0x3d5a2f07	0.053267505
93	0x3c79ad35	0.01523905
94	0x3c9b4f07	0.018958582
95	0xbdafd1ee	-0.08584963
96	0xbd1be6a3	-0.03806175
97	0x3de7d8a8	0.11320621
98	0xbc6e0e7e	-0.014529822
99	0xbd408eaa	-0.047011055
100	0x39a6c97b	0.00031812102
101	0x3e3f67ce	0.18691942
102	0x3bfe9635	0.007769371
103	0xbadfb299	-0.0017066776
104	0xbd23a183	-0.03994895
105	0xbda8ff08	-0.08251768
106	0x3b92e78f	0.0044831703
107	0x3d16e9d5	0.036844093
108	0x3cc913c4	0.024545558
109	0xbd6c67fd	-0.05771636
110	0x3dae170c	0.085004896
111	0xbd3d585c	-0.046226844
112	0x3bdefee9	0.00680529
113	0xbb922842	-0.0044603655
114	0x3d88b33f	0.066748135
115	0x3e325aa9	0.17417397
116	0xbc91a8ff	-0.017780779
117	0xbd66da75	-0.05636068
118	0xbdc7c8c4	-0.0975509
119	0xbd4a431a	-0.0493804
120	0x3cbd4342	0.02310336
121	0xbdcda40a	-0.100410536
122	0x3d36662a	0.044531025
123	0xbcfaf27a	-0.0306332
124	0x3d59ee05	0.05320551
125	0x3e3d3749	0.18478121
126	0xbb8cb3e3	-0.004293905
127	0xbca8a6db	-0.020587375
128	0x3db408dd	0.08790753
129	0xbc321d8c	-0.010871302
130	0x3d85bb67	0.06529885
131	0xbaf1f6ac	-0.0018460355
132	0xbd2a130d	-0.041522074
133	0x3d93fe3d	0.072262265
134	0xbde0b3ba	-0.1097178
135	0xbd4f3039	-0.050583098
136	0x3da388d4	0.07985082
137	0x3d0700ea	0.032959856
138	0xbc019f82	-0.007911565
139	0x3d9568ef	0.07295405
140	0xbd2c2c48	-0.042034417
141	0x3dbaba1f	0.09117531
142	0xbdac3bd8	-0.08409852
143	0x3e0e3329	0.13886704
144	0x3cb65cb5	0.022261003
145	0x3d88b7dd	0.06675694
146	0x3d067a60	0.03283155
147	0xbdcd4f7b	-0.10024925
148	0x3d4af59e	0.049550645
149	0x3d225fbd	0.039642084
150	0xbdaeada9	-0.08529217
151	0xbd9ca61d	-0.07648871
152	0xbd2d46ca	-0.042303838
153	0x3dab7c75	0.08373348
154	0x3d14e4f1	0.036351148
155	0x3c9b5661	0.018962087
156	0xbd383f76	-0.044982396
157	0xbd5b93f8	-0.05360791
158	0x3d6b03ce	0.057376675
159	0x3e3555a5	0.17708452
160	0x3b48d13a	0.0030642287
161	0xbc250060	-0.01007089
162	0x3d4d6554	0.050145462
163	0xbe075155	-0.1321462
164	0xbb46016f	-0.0030213257
165	0xbd735036	-0.059402667
166	0x3d17ea15	0.037088472
167	0xbda28b8a	-0.07936771
168	0x3da975cd	0.08274422
169	0xbd80fd50	-0.062983155
170	0x3dc83145	0.097750224
171	0xbddb5b48	-0.1071077
172	0xbcde7ec2	-0.027160052
173	0x3dcd8bf8	0.100364625
174	0xbd5a6647	-0.053320196
175	0x3d75e530	0.060033023
176	0x3b806492	0.003918239
177	0x3cc21340	0.02369082
178	0x3d072c0d	0.033000994
179	0xbdb68acd	-0.08913193
180	0xbe0dd115	-0.1384929
181	0x3b895a25	0.0041916543
182	0xbe021032	-0.1270149
183	0x3da1f374	0.07907763
184	0x3d8b947a	0.06815429
185	0x3e044c45	0.1291972
186	0xbd45702e	-0.048202686
187	0x3d28bd69	0.04119626
188	0x3c7b42be	0.015335737
189	0xbda9400e	-0.082641706
190	0x3c0f3356	0.008740267
191	0x3d541789	0.051780257
192	0x3a3ca73f	0.00071965525
193	0x3d8efd77	0.06981938
194	0xbd6cbf30	-0.057799518
195	0x3d125d58	0.03573355
196	0xbd886944	-0.06660703
197	0xbd7313f3	-0.059345197
198	0xbd71e148	-0.059052736
199	0xbdd5d94f	-0.10441839
200	0xbdb88755	-0.090101875
201	0xbc41b0ec	-0.011821967
202	0xbd8bfe6e	-0.06835638
203	0x3dff097f	0.12452983
204	0xbc202211	-0.009773747
205	0xbdf8c317	-0.121465854
206	0xbc6a2284	-0.014290456
207	0xbd38b9fe	-0.04509925
208	0xbdabe0e8	-0.08392507
209	0xbd544e85	-0.051832695
210	0x3c83dd34	0.016096689
211	0xbde1601c	-0.110046595
212	0xbd2e6b9c	-0.042583093
213	0x3d80bfa5	0.06286553
214	0x3d56b200	0.052415848
215	0x3c7dacc3	0.015483084
216	0x3d3857db	0.04500566
217	0xbc829b98	-0.015943334
218	0xbdaf7d24	-0.085687906
219	0xbd0c31c3	-0.034227144
220	0xbde22be0	-0.11043525
221	0xbdb5bc7f	-0.088738434
222	0xbe2b9066	-0.16754302
223	0x3d45d0ff	0.048295017
224	0xbdc76142	-0.09735347
225	0x3e1816b9	0.14852418
226	0xbda47af6	-0.080312654
227	0xbd752e84	-0.059858814
228	0xbdf9b8a1	-0.12193418
229	0xbd914f98	-0.070952594
230	0x3b438eda	0.0029839785
231	0x3d3419e4	0.043970004
232	0xbc92a270	-0.017899722
233	0xbdac2fd1	-0.08407558
234	0x3d940c75	0.072289385
235	0xbdc189bc	-0.09450099
236	0x3d74e949	0.05979279
237	0x3e01d1f5	0.12677749
238	0xbd80be3c	-0.06286284
239	0xbd5e682f	-0.054298576
240	0x3d8f8176	0.070071146
241	0xbcb58bcf	-0.022161392
242	0x3e197300	0.14985275
243	0xbc2a63bb	-0.010399754
244	0x3cbfc9d0	0.023411661
245	0xbc5e7892	-0.013578551
246	0x3d1e3f66	0.03863468
247	0x3e5b6c22	0.21427968
248	0x3d2a8bd8	0.04163727
249	0xbe088741	-0.13332845
250	0x3d432a9e	0.047648065
251	0x3d1918b9	0.037377093
252	0x3e381df8	0.17980182
253	0x3dc0e9f1	0.09419621
254	0xbca43161	-0.020043077
255	0xbde460f6	-0.11151306

fc2.bias f4 [84]
0	0xbcff0fc2	-0.031135444
1	0x3c8ef5fe	0.017451283
2	0x3e00ef24	0.12591225
3	0x3cc8bf9b	0.024505427
4	0xbd2b3a35	-0.041803557
5	0x3dca1a43	0.0986829
6	0xbd86da9c	-0.06584665
7	0xbcb23e87	-0.021758331
8	0x3db1ef03	0.08688166
9	0xbdb3e131	-0.08783186
10	0x3dc2917f	0.095004074
11	0x3d8c6774	0.068556696
12	0x3d673503	0.05644704
13	0xbdadda72	-0.08488931
14	0xbd56a2f9	-0.052401517
15	0x3da38115	0.07983605
16	0x39982f31	0.0002902686
17	0x3ddc15bb	0.10746332
18	0x3c9567ca	0.018237967
19	0xbc765ee9	-0.015037277
20	0xbd3e4756	-0.04645475
21	0xbdafb11c	-0.08578703
22	0x3b7d4d6d	0.0038650886
23	0xbb83c531	-0.00402131
24	0x3c2242c8	0.009903617
25	0x3cd5326e	0.026025023
26	0xbd66b108	-0.056321174
27	0x3d847108	0.064668715
28	0x3dca6561	0.09882618
29	0x3d40cc30	0.04706973
30	0x3d311c2c	0.043239757
31	0x3d4c8b2a	0.049937405
32	0xbdbb8e37	-0.09157985
33	0xbd50ab01	-0.050944332
34	0x3d72d9b5	0.059289653
35	0xbba4cfbc	-0.0050296467
36	0x3dd94f40	0.10610819
37	0x3d109213	0.035295557
38	0x3ddaffbd	0.106933095
39	0x3d231d4b	0.039822858
40	0x3da22df1	0.07918919
41	0x3c8c2755	0.017108599
42	0xbdad2810	-0.08454907
43	0x3d802665	0.06257323
44	0xbd876519	-0.0661108
45	0xbd5c8c10	-0.05384451
46	0xbd74fc2f	-0.059810814
47	0x3ccfbfcf	0.025360016
48	0x3d9916d1	0.07475055
49	0x3dd56250	0.10419142
50	0x3d86e9df	0.06587576
51	0x3d4cf2ef	0.050036367
52	0xbd29781a	-0.041374303
53	0xbd9a6c0a	-0.07540138
54	0x3b5d7347	0.0033790634
55	0x3da1f26b	0.07907566
56	0x3cd8f0d6	0.026482027
57	0x3da5c8ba	0.08094926
58	0xbd9e6d78	-0.07735723
59	0xbdc3aa0d	-0.09553919
60	0xbd67e2f6	-0.05661293
61	0xba349356	-0.000688841
62	0x3cae874d	0.02130475
63	0xbd2a2cfb	-0.041546803
64	0xbd44f8b6	-0.04808875
65	0xbd6d79c8	-0.057977468
66	0x3b7dcd69	0.003872717
67	0xbc84b4a2	-0.016199414
68	0xbd84f072	-0.06491174
69	0x3d54f57e	0.051991932
70	0x3cc22e1d	0.02370363
71	0x3ddefda2	0.1088822
72	0x3d30e2b4	0.04318495
73	0xbc603b60	-0.013686031
74	0x3b30a453	0.0026953414
75	0xbd37c6b5	-0.044867236
76	0x3bac2ec9	0.0052546007
77	0x3ae60b64	0.0017551002
78	0x3db556e2	0.08854462
79	0x3dbaef10	0.09127629
80	0xbbd7d52b	-0.006586691
81	0x3da6f4b9	0.08152146
82	0x3d6a48a0	0.057198167
83	0x3ce7f5c4	0.028315432

fc3.weight f4 [10, 84]
0	0x3e97f2ad	0.29677334
1	0xbe844208	-0.25831628
2	0x3e4d59c7	0.20053779
3	0x3d3fe9b0	0.04685372
4	0x3e97b5f8	0.2963102
5	0xbe767282	-0.24067119
6	0x3dd51fad	0.10406432
7	0x3e705373	0.23469333
8	0xbe90ec2f	-0.28305194
9	0x3c0cbdc7	0.008590168
10	0x3c319ebd	0.010841069
11	0xbdfe4021	-0.12414575
12	0x3d45de45	0.048307676
13	0xbd2c6f31	-0.042098228
14	0x3db7e1c6	0.0897861
15	0xbe57681c	-0.21035808
16	0x3e34053a	0.17580119
17	0x3dc1619c	0.09442446
18	0x3cc7fd0b	0.024412652
19	0xbd3234d7	-0.043507423
20	0x3cce9054	0.025215305
21	0x3dc9324c	0.098240465
22	0x3e9ce3c1	0.30642512
23	0x3e1f8d28	0.1558119
24	0xbe0d4f23	-0.1379972
25	0xbe1a3671	-0.1505983
26	0x3ddd0fb2	0.10794009
27	0xbd564a52	-0.05231697
28	0xbe4d8e4d	-0.20073815
29	0x3c2e40fc	0.010635611
30	0x3e6b31f9	0.22968282
31	0x3e8749e2	0.26423556
32	0x3d662fa1	0.056197766
33	0x3e1a52f7	0.15070711
34	0xbed6869f	-0.41899583
35	0xbc5ee429	-0.013604202
36	0xbed379c1	-0.41303828
37	0xbc7181fc	-0.014740463
38	0xbdbbf6f1	-0.0917796
39	0x3cab5e0e	0.020918872
40	0x3e5bfe86	0.21483812
41	0x3d945d45	0.07244352
42	0xbd8d5e89	-0.06902797
43	0xbe7e88f8	-0.24856937
44	0x3d58a5c7	0.052892473
45	0xbe0ac8ff	-0.13553236
46	0xbdfaf43d	-0.12253616
47	0x3e1763cb	0.14784162
48	0xbce7b287	-0.02828337
49	0xbe6f0cee	-0.23344776
50	0xbe0d16d8	-0.13778245
51	0xbe83d4d3	-0.2574831
52	0x3e6b125d	0.22956224
53	0xbdee2945	-0.11628965
54	0x3e7d6b90	0.24748063
55	0xbe3a1011	-0.18170191
56	0x3ddb633a	0.10712285
57	0x3d937596	0.07200162
58	0x3d573ed9	0.05255017
59	0xbd1268a2	-0.035744317
60	0xbda183b2	-0.07886447
61	0x3d9fd6b1	0.07804621
62	0xbe124f3a	-0.14288035
63	0x3c9dc514	0.019259013
64	0x3ccc9437	0.024973018
65	0x3dd3b5cc	0.103374094
66	0xbc6bd559	-0.014394128
67	0xbe022737	-0.12710272
68	0x3e111dc2	0.14171508
69	0xbd285d9b	-0.041104894
70	0x3d0e88df	0.0347985
71	0xbe49d5a3	-0.19710402
72	0xbe83cee5	-0.25743786
73	0xbd3c48a6	-0.04596772
74	0xbc24dbb0	-0.010062143
75	0x3bd63e17	0.0065381634
76	0xbd92fb6a	-0.0717686
77	0xbdd6b00c	-0.10482797
78	0xbd5460f7	-0.051850285
79	0xbe6aa6a6	-0.22915134
80	0x3cca7b3e	0.02471697
81	0x3e9c97a6	0.3058445
82	0xbe3b77b8	-0.18307388
83	0xbc8a6ec6	-0.016898524
84	0xbe64391d	-0.22287412
85	0x3e05e8df	0.13077115
86	0xbd2759f7	-0.04085728
87	0xbe9268e3	-0.28595647
88	0xbe2ef9b9	-0.17087449
89	0xbe0eb58c	-0.13936442
90	0xbd3b5c59	-0.045742366
91	0x3e09dd71	0.1346338
92	0xbe6f9923	-0.23398261
93	0xbc8b1656	-0.016978424
94	0xbe73abf3	-0.23796062
95	0xbdc080d5	-0.09399573
96	0xbd2ad6a2	-0.041708596
97	0x3d156671	0.03647465
98	0x3e33c04b	0.17553823
99	0x3e94d372	0.2906757
100	0x3952900f	0.00020080827
101	0xbe2f1b9f	-0.1710038
102	0xbdc07cd6	-0.093988106
103	0x3da3a019	0.079895206
104	0xbe958aac	-0.2920736
105	0x3e3a2699	0.18178786
106	0x3d3b26ee	0.045691423
107	0x3e43fbea	0.19139066
108	0x3ddbc363	0.107306264
109	0x3e6571e5	0.22406729
110	0x3d876761	0.06611515
111	0xbe1ab7eb	-0.15109222
112	0x3e9601d0	0.29298258
113	0x3ddf5e60	0.109066725
114	0xbe4b784a	-0.19870105
115	0x3b65070e	0.0034946832
116	0x3e4ca7c4	0.19985873
117	0x3e15e0d3	0.14636545
118	0xbcc4309b	-0.023948958
119	0xbc55e4e6	-0.013055062
120	0x3df8ad77	0.12142461
121	0xbd2c7e70	-0.042112768
122	0xbdca8c79	-0.09890074
123	0x3e931e19	0.287339
124	0xbe92f257	-0.28700516
125	0x3d7ccee0	0.06172073
126	0xbcacfa8b	-0.021115562
127	0x3ddd69ba	0.10811181
128	0x3dfa61c4	0.122256786
129	0x3e56d899	0.20981063
130	0x3d17ac27	0.03702941
131	0x3b8553a3	0.004068808
132	0x3e512f84	0.20428282
133	0xbcb5e5b5	-0.02220426
134	0x3ec042e3	0.3755103
135	0xbe3e01ef	-0.18555425
136	0xbe5fe38f	-0.2186415
137	0x3e6ffa84	0.23435408
138	0xbe0a4c75	-0.13505729
139	0xbdb507d9	-0.088393874
140	0xbe42b1f0	-0.1901319
141	0xbe16d57e	-0.14729878
142	0xbdb064a7	-0.08612948
143	0x3dc6476f	0.096815936
144	0xbd418176	-0.047242604
145	0xbe120928	-0.14261305
146	0x3e80d0e4	0.2515937
147	0xbcbe9271	-0.023263188
148	0x3dc589db	0.096454345
149	0xbe4c9932	-0.19980314
150	0x3d7b659c	0.0613762
151	0x3e8d144f	0.27554557
152	0x3d96ddd7	0.07366531
153	0xbe3202cf	-0.17383884
154	0x3e45c907	0.19314967
155	0xbe364793	-0.17800741
156	0xbe539bb0	-0.20664859
157	0x3d30d2dc	0.04316984
158	0x3ccc16cf	0.02491322
159	0x3db6ea3b	0.08931395
160	0xbe3d3f91	-0.1848128
161	0xbd6ab55f	-0.057301875
162	0xbe476fbf	-0.19476222
163	0xbe2df4d2	-0.16987923
164	0x3c8e59e9	0.017376857
165	0x3dc123bb	0.09430643
166	0xbdca994b	-0.098925196
167	0x3d9f6253	0.07782426
168	0xbcfc3236	-0.030785661
169	0x3e83e442	0.25760084
170	0xbe19e353	-0.15028124
171	0xbe0c93e2	-0.13728288
172	0xbe9b8633	-0.30375823
173	0xbe35c242	-0.17749885
174	0xbd87369a	-0.06602211
175	0xbdbb12a5	-0.091344155
176	0x3d6b338e	0.057422213
177	0x3d1ced8b	0.038312476
178	0xbdf08496	-0.11744039
179	0x3e8d4d06	0.27597827
180	0x3e69ceab	0.22832744
181	0xbd0586cf	-0.032599267
182	0xbe5bcace	-0.21464083
183	0x3c88c64a	0.016696114
184	0xbdd2e46e	-0.10297476
185	0x3e8c6c83	0.27426538
186	0x3e33fa71	0.17576005
187	0x3d1b9f95	0.037993986
188	0x3e353aea	0.17698255
189	0xbe1eee50	-0.15520597
190	0xbe008fb7	-0.12554823
191	0x3ea248d4	0.31696188
192	0xbd9ace97	-0.07558935
193	0xbe2ea48a	-0.17054954
194	0xbd21b12d	-0.03947561
195	0x3d3b2c1b	0.04569636
196	0xbe471565	-0.19441755
197	0x3db99a46	0.090626284
198	0x3e00d554	0.12581378
199	0x3e28fb07	0.1650201
200	0xbe4fefd7	-0.20306335
201	0x3db9910e	0.0906087
202	0xbe16480e	-0.14675924
203	0xbe7347e1	-0.23757888
204	0xbe0a2ff3	-0.13494854
205	0x3cab995e	0.020947155
206	0xbe34a87f	-0.17642401
207	0xbba017e3	-0.00488566
208	0xbea8954f	-0.32926413
209	0xbdb99019	-0.090606876
210	0x3dd1e4ee	0.10248743
211	0x3dfc2992	0.123126164
212	0xbde1ac1a	-0.11019154
213	0x3cdaf10c	0.026726268
214	0x3b5718a0	0.0032821074
215	0x3e53ac45	0.20671184
216	0x3ebe032a	0.3711179
217	0x3da10a8d	0.078633405
218	0xbe1ccfb1	-0.15313603
219	0xbec7a81e	-0.3899545
220	0x3dea2c65	0.11434249
221	0xbdfd9f13	-0.123838566
222	0xbd9caee6	-0.07650547
223	0x3dd95c9c	0.10613367
224	0x3dff3fca	0.12463339
225	0xbe83e5f1	-0.2576137
226	0x3d41cca0	0.047314286
227	0x3be79c74	0.007068211
228	0x3d611842	0.054954775
229	0x3d8985f6	0.06715004
230	0xbde29694	-0.11063877
231	0x3d8398ca	0.064256266
232	0x3dc4c404	0.096076995
233	0xbe64308e	-0.22284147
234	0x3e190c55	0.1494611
235	0x3e2bd4e9	0.16780438
236	0xbe0f40e6	-0.139896
237	0xbe6ec506	-0.23317346
238	0xbd4eacc3	-0.050457727
239	0x3e66b56d	0.22530146
240	0x3e4e8309	0.20167173
241	0xbccd0a3f	-0.0250293
242	0xbdb187a8	-0.086684525
243	0xbdf17fcd	-0.11791954
244	0x3e5c6ecd	0.21526642
245	0x3dcbf760	0.099592924
246	0xbd31a1fe	-0.04336738
247	0xbd574160	-0.05255258
248	0xbdaf8d58	-0.08571881
249	0x3e6a1f7f	0.22863577
250	0x3e168d38	0.14702308
251	0xbca6db56	-0.02036826
252	0xbd2a17f6	-0.041526757
253	0x3e037bf7	0.12840258
254	0xbe748b35	-0.23881228
255	0xbdd3367b	-0.10313126

fc3.bias f4 [10]
0	0xbdc9c0dc	-0.09851238
1	0x3c79d8a2	0.015249403
2	0xbd2ce295	-0.042208273
3	0x3d06ae0a	0.03288082
4	0x3ca1e365	0.01976175
5	0xbd0de2e2	-0.0346402
6	0xbe265809	-0.1624452
7	0xba7b0203	-0.000957519
8	0x3e05abf4	0.13053876
9	0xbd3bbbef	-0.045833524
